outputs/tags/2023-03-27-09-22-39/trained_model/best_weight.pt (torch, 842999 bytes, 8 tensors)

weight f4 [32, 1, 4, 4]
000000 cb cf be be c1 e8 9c be 8e 0f 91 3d c4 9a 0c 3c
       -0.37267908 -0.30646327 0.07083045 0.008581821
000010 5c 7f 4a be 40 f4 b6 be 79 1a 2b be 28 ef 49 bd
       -0.19775146 -0.35733223 -0.16709317 -0.049300343
000020 b8 39 9e 3e 8b 7c 7f 3e b6 9b a8 be 26 52 8a 3e
       0.3090341 0.24949853 -0.32931298 0.270158
000030 08 6e fd be 60 7a aa bc 49 6e c7 be 4b 1b 15 3e
       -0.4949801 -0.020810306 -0.38951328 0.14561193
000040 20 af a6 3e 33 e5 c1 bc 0e 62 4e bf ad ab 89 3d
       0.32555485 -0.023668861 -0.8061837 0.06722198
000050 31 cc 8d 3d e1 22 c6 be 22 03 0f 3d 89 5b 83 3e
       0.06923712 -0.38698485 0.034915097 0.25655773
000060 1b d6 35 3e b0 55 15 bf d2 da 32 be 8c dc da be
       0.17757456 -0.58333874 -0.17466286 -0.4274639
000070 e6 c9 f2 3b 66 99 76 3c b1 f4 10 bf 3d 7a 95 be
       0.007409322 0.0150512215 -0.5662337 -0.29194823
000080 75 cf e1 3c 45 3e c0 bd cb d2 eb bd 5f 2c f9 be
       0.027564744 -0.09386877 -0.11514815 -0.48666665
000090 34 2d 66 3d c3 a4 22 bd 2b 74 f5 be 94 c4 37 bf
       0.056195453 -0.03970791 -0.47940192 -0.7178433
0000a0 ea d7 34 3e 7b bb 28 3e 1f af 90 bd 22 af a0 be
       0.1766049 0.16477768 -0.07064652 -0.31383616
0000b0 1c c3 1b 3e 4f 05 4e 3e 5d eb 09 3e 1e c8 43 be
       0.15211147 0.20119213 0.1346869 -0.19119307
0000c0 be 7f 69 3c 6b f5 1a be b1 49 ef 3d d9 7d 71 bc
       0.0142516475 -0.15132682 0.116839774 -0.014739477
0000d0 ab 2b 02 bd 5e 74 6d 3e e6 08 5a 3e fc 01 a6 bc
       -0.031779926 0.23188922 0.21292457 -0.020264618
0000e0 1b 6f 88 3d 05 41 4d 3e ab 85 28 3f a6 2f 0e 3e
       0.06661817 0.20044334 0.6582896 0.13885364
0000f0 26 20 a9 bd 65 3a c7 3e 84 ec 12 c0 b6 0a 84 3e
       -0.08258085 0.3891174 -2.2956858 0.25789422
000100 24 ea 25 bb 46 ff 23 bd 97 8d c6 3f 10 bf f4 bc
       -0.002531656 -0.04003837 1.551196 -0.029876262
000110 af a0 df 3d 2f 11 33 bd 3f d7 e0 bf 94 71 80 bc
       0.1091932 -0.04371756 -1.7565688 -0.015679158
000120 56 f4 d7 bd c0 2e 8e bd b8 9a ce bd 33 23 f9 bc
       -0.1054465 -0.069425106 -0.10088104 -0.030412292
000130 79 88 27 bd 0b 55 0f bd 44 96 f3 bd 17 ee f0 bc
       -0.040901635 -0.034993213 -0.11893895 -0.029410405
000140 b7 20 8f bc f4 29 53 bf d9 39 53 bf a9 f5 53 3d
       -0.017471654 -0.8248589 -0.82510144 0.05174795
000150 67 aa b6 bd bd 97 18 be 1e 0f 29 bf e7 8e bf 3d
       -0.089192204 -0.14901634 -0.6603869 0.09353428
000160 e2 78 e7 bd 75 5c b9 bb 9b 48 2a 3f b7 23 5b bd
       -0.113023534 -0.0056567737 0.6651704 -0.053500857
000170 90 62 62 3d a5 b4 5b 3d 1b 2b 65 bf 11 71 4e bd
       0.055269778 0.053639073 -0.895189 -0.050400797
000180 57 f8 a2 3d 30 9e ba bd 83 63 a9 bc 9b e6 9b be
       0.07957523 -0.09112203 -0.020677334 -0.30449376
000190 ad b3 03 3e 96 71 2a 3e e8 65 6f 3e a8 1d 9f bc
       0.1286151 0.16644892 0.23378718 -0.01942332
0001a0 44 0d 8a 3e 83 4c 54 3e 8a 2c ce 3c 4e c8 9f bf
       0.26963246 0.20732312 0.025167722 -1.2483003
0001b0 c1 19 39 bd 26 55 44 3c 2e ba 0e 3d 0f b1 07 3d
       -0.045190576 0.011983192 0.034845524 0.03312784
0001c0 52 49 1d bf eb ca 19 bf f0 30 18 3e ff 19 55 3d
       -0.6144 -0.60075253 0.14862418 0.052026745
0001d0 00 5e b3 3c 77 2a d6 be 9c 50 57 3f c6 d7 0f 3d
       0.021895409 -0.41829273 0.84107375 0.035117887
0001e0 e8 ec e5 3d f8 46 80 bf 9f bf 15 bf a2 50 9e bc
       0.11226827 -1.0021658 -0.58495516 -0.019325558
0001f0 41 c2 43 be 96 95 12 bd f1 a5 fd be e3 0b 2d bd
       -0.1911707 -0.035787188 -0.49540666 -0.042247664
000200 1d 78 1d bf 02 4f 90 bf dc 84 e1 3d 60 89 ee bd
       -0.61511403 -1.1274111 0.11011669 -0.11647296
000210 22 78 40 bf 15 d3 62 bf d7 11 8b 3e 21 48 3d 3d
       -0.7518331 -0.88603336 0.27162048 0.046211366
000220 6f 6a 6a bf ff c6 87 bf 34 9f 50 3e 68 12 d6 3d
       -0.91568655 -1.0607604 0.20373231 0.104527295
000230 f7 9b cf be 69 e1 93 bf e3 b6 81 3e 99 be d4 bc
       -0.4054868 -1.1553165 0.25334844 -0.02596979
000240 7f 0d 26 be a3 42 75 bf 51 2f 0e 3e 1d 36 75 3d
       -0.16216086 -0.95804805 0.13885237 0.05986606
000250 8d 22 96 be ba 8e 28 be 2b 09 82 bd 07 5a 8d 3d
       -0.29323235 -0.16460696 -0.06349405 0.06901937
000260 61 f2 d6 3d a6 68 e2 bd 1c 16 1d bd 35 93 25 3f
       0.10495449 -0.11055116 -0.038351163 0.64677745
000270 7b 01 90 be fe 45 31 be 75 a6 5f be fb 82 48 bf
       -0.2812613 -0.17311856 -0.21840842 -0.7832486
000280 9d 2e 47 bd a4 52 b4 be 36 7e ac be 33 b3 c2 bd
       -0.04862844 -0.352193 -0.3369004 -0.09506836
000290 e4 8f 4d be 02 5c d6 bd d3 d3 ed bd a7 12 67 be
       -0.20074421 -0.10466768 -0.11612668 -0.22565709
0002a0 1c ac 90 bb 5d 15 4e 3e 85 fd c6 3d a7 42 d4 bc
       -0.0044150483 0.20125337 0.09716324 -0.025910689
0002b0 1e ef 11 3e cb 74 9f 3e 77 65 c3 3e 31 db 7a 3e
       0.14251372 0.31143793 0.3816335 0.24497677
0002c0 f2 fb 09 bd 27 7f 90 bf ff b5 90 bf 76 46 8c 3b
       -0.03368754 -1.1288804 -1.1305541 0.0042808605
0002d0 0b 73 2e 3e 6a 37 01 be ac 0c 90 bf 0c 32 f2 3d
       0.17036073 -0.12618795 -1.1253867 0.11825952
0002e0 07 20 69 3e 5b 05 e5 be e7 6e 15 bf af 7d 44 bc
       0.22766124 -0.44730648 -0.5837235 -0.011992856
0002f0 df ec 97 3e e2 ed bf be 00 49 c9 be b8 cb 23 3e
       0.29672906 -0.37486178 -0.39313507 0.15995681
000300 e9 67 ac 3c 0f 4a 8f 3f f2 78 18 bc f8 ff 1b 3d
       0.021045642 1.1194476 -0.009306179 0.038085908
000310 e7 4d f8 bc a1 b4 96 bf 4c f7 0e bd 41 9f aa 3e
       -0.030310584 -1.1773874 -0.03490381 0.33324626
000320 de 6b 84 bd d7 27 fb bc 5c 64 d5 bc ec 59 cd be
       -0.064658865 -0.030658646 -0.026048832 -0.40107667
000330 99 b2 80 3c c1 74 83 bd 19 07 a9 bc 88 6c d7 bc
       0.015710162 -0.064187534 -0.020633267 -0.026296869
000340 ff 3a d8 3d 46 3b 9e 3e ca 4f 1d bb 6c c4 80 3d
       0.105581276 0.30904597 -0.0024003857 0.062874645
000350 8e 9f 73 3f e1 7d e7 3e e2 2b e6 bc bc 18 76 bd
       0.95165336 0.45213225 -0.028097097 -0.060082182
000360 82 79 90 bf 2a 6b 61 bf 36 8f ef bb f3 44 10 bd
       -1.1287081 -0.88054144 -0.0073107732 -0.035222005
000370 71 9f f8 bc 6f ea 8a bd 21 77 79 bc a2 8f 65 bc
       -0.030349465 -0.06782996 -0.015226156 -0.0140112955
000380 0b 5e 64 3e 30 33 98 3e 57 ac 0b 3d 4a 66 39 bd
       0.223015 0.29726553 0.034099903 -0.045263566
000390 9d 83 88 be 33 e9 28 be 56 41 06 bf cd c7 5e bf
       -0.26662913 -0.16495208 -0.52443445 -0.8702362
0003a0 e6 c4 cb bd 5f e9 af be 6e bf 33 be 81 50 d3 3d
       -0.09949665 -0.34357736 -0.17553493 0.10318089
0003b0 06 3b 50 be 65 83 86 be f5 e0 de 3d c4 e6 3d 3d
       -0.20335016 -0.2627212 0.10882751 0.046362653
0003c0 15 e1 a1 3d 19 61 28 bf 2b 76 1c bf 49 9e fb be
       0.07904259 -0.6577316 -0.6111781 -0.491442
0003d0 2e 9b 8c 3e 72 52 a4 3e ba 1e 6a be 07 38 ad 3d
       0.27462143 0.3209415 -0.22863284 0.08457952
0003e0 0a f3 03 3e 1f 32 03 bf bf b5 98 be 9a 14 13 be
       0.12885681 -0.51248354 -0.2982616 -0.14363328
0003f0 f7 a2 0c bf 9e c3 3a 3e de 52 02 be b8 23 d4 be
       -0.54936165 0.18238685 -0.12726924 -0.414335

weight f4 [32, 32, 5, 5]
000000 cf cb 05 bc d1 ac 2a bf a4 ad 9b 3f 6d ff a2 3e
       -0.008166268 -0.66669947 1.2162366 0.318355
000010 b7 21 a2 3e 96 7c 8b 3f 72 a3 97 be 37 db 11 3f
       0.31666347 1.0897396 -0.29616886 0.5697512
000020 02 a7 68 3e 7a d2 84 3e 95 58 27 3f 60 81 82 be
       0.22719958 0.2594183 0.6536954 -0.2548933
000030 91 0d fc 3e c0 bd dc 3d 47 3c 7e 3e a4 d6 d8 bf
       0.492291 0.107783794 0.24827681 -1.6940503
000040 cd 3e 6c 3f 74 75 ba 3d da 09 47 3e 6b d8 dc be
       0.92283326 0.09104434 0.19437352 -0.43133864
000050 1c c3 e4 3c 1f 19 31 3f a5 21 af bd 73 a1 1e 3c
       0.027925067 0.69178957 -0.08551339 0.009682047
000060 57 54 af 3e 05 8e e4 bd c6 e9 97 3d 9d d9 9c 3d
       0.34244034 -0.111599006 0.074176356 0.07658694
000070 26 6f 7a 3b 75 3b b7 3e d6 94 3c bf 5d 0a ff be
       0.0038213222 0.3578755 -0.73664606 -0.49812594
000080 e2 89 3a 3e 6c e6 66 3f 4a b3 20 3f 7b cc 97 3e
       0.1821666 0.90195346 0.62773573 0.29648194
000090 00 fb 7c be 09 e8 d3 3d 95 7c a5 be 9b 9b ed 3e
       -0.24705124 0.103469916 -0.3232161 0.4640778
0000a0 d0 5b 9f bd c4 12 3f 3e a2 9c 24 3f bb 6e c6 3e
       -0.07781184 0.18659502 0.643015 0.38756356
0000b0 cd b4 76 be 98 8d 20 bf 2f 14 36 bf 24 ce 88 3e
       -0.24092408 -0.62716055 -0.7112455 0.26719773
0000c0 69 5d d7 be 2f 84 93 3d 5a 19 76 3e 2e 74 88 3e
       -0.42063454 0.072029464 0.24033108 0.26651138
0000d0 04 f8 82 bd 4e 41 f8 3e 7a 6a c0 be 62 e2 03 bf
       -0.063949615 0.48487324 -0.37581235 -0.5151731
0000e0 20 a8 92 be 06 d0 2e 3d ea 89 cf be a6 b1 03 be
       -0.28643894 0.042678855 -0.40534908 -0.12860736
0000f0 35 57 e7 3e 4d 47 8d 3d 5d fd 94 3c a1 e7 8a 3c
       0.4518372 0.06898365 0.01818722 0.016956152
000100 e8 82 e0 3d c6 ee 4d bd b7 01 29 3e 7a be aa bd
       0.109624684 -0.05027654 0.1650456 -0.08337112
000110 17 b0 c6 bd 9d 84 59 be 4b 81 86 3e 24 4a 53 bf
       -0.09701555 -0.21241994 0.26270518 -0.82535005
000120 58 35 d3 be eb ca 0b bf 71 f9 25 3e 2b ee 67 be
       -0.41251636 -0.54606503 0.16208436 -0.22649448
000130 38 46 f4 bd 83 86 2e be e2 1a 30 be ac 19 03 bf
       -0.11927456 -0.170435 -0.17197755 -0.5121105
000140 08 ee 87 be 2a 9c b6 be 48 82 ef be d8 ba 3f 3d
       -0.2654879 -0.3566602 -0.46779084 0.046809047
000150 b7 ea 72 be 19 d9 34 3e 9b e9 e6 bd 67 de 13 be
       -0.23722349 0.17660941 -0.112750255 -0.14440309
000160 42 a1 5e 3d ca 62 48 3d 08 8f 3a bf 48 4f 80 be
       0.054353006 0.048922338 -0.728745 -0.25060487
000170 eb bd 95 be af bd ac be 41 a4 5f bf 15 62 63 bf
       -0.29246458 -0.33738467 -0.87360007 -0.88821536
000180 dc 61 97 bf 4a 1d 84 bf fd 8e b3 bf 4b f4 e7 bf
       -1.1826739 -1.0321438 -1.4028012 -1.8121427
000190 40 fd e9 3e 75 e9 97 be ad 86 2b bf 2b 78 9c be
       0.45701027 -0.296703 -0.67002374 -0.3056043
0001a0 18 3b 66 bf 7e 8a 44 bf e0 6a 83 be c0 b7 30 bf
       -0.8993392 -0.7677382 -0.25667477 -0.6903038
0001b0 a0 fb 1b 3e d6 29 10 bf 42 e6 4e 3c c8 aa 2f bd
       0.15232706 -0.56313837 0.01262814 -0.04288748
0001c0 38 5c c4 be 11 18 1b 3f a2 09 d5 be 07 0a 74 3e
       -0.38351607 0.605836 -0.41608912 0.2383195
0001d0 ca 41 14 bf b5 5c a9 3e 33 89 01 3f d7 9e e3 3e
       -0.57912886 0.33078542 0.50599974 0.44457123
0001e0 c0 89 7f bf 07 9f 91 bf 66 6e d8 bd 49 0a a7 be
       -0.99819565 -1.1376656 -0.10567932 -0.32625034
0001f0 d5 ab 68 bd 00 b0 24 bf e4 ba f0 3e b3 9c 43 be
       -0.056804497 -0.64331055 0.47017586 -0.19102745
000200 88 70 63 bf 82 9f 48 be 03 b8 b5 be 1e 1d 54 3f
       -0.88843584 -0.19592097 -0.35491952 0.8285693
000210 30 2e 3d 3d 3e 95 a8 be b3 4a 1d bd 09 d0 27 3e
       0.046186626 -0.32926363 -0.038401317 0.16387953
000220 bc 3a 82 be 63 3f 72 be a1 d4 8c 3e 7b 33 28 be
       -0.25435436 -0.23656993 0.27505973 -0.16425888
000230 2f c8 4e 3f 05 83 97 3e 41 21 09 3e 91 75 0c be
       0.80774206 0.29592147 0.13391592 -0.13716723
000240 e6 82 04 3f 3d 7d 06 bf 62 cd 6b bf 69 6e e2 3d
       0.51762235 -0.5253485 -0.92110264 0.11056215
000250 6c 43 10 bf aa 4f 63 3f f6 22 62 3e da 4a cd be
       -0.5635288 0.8879343 0.22083649 -0.4009617
000260 d7 ae 41 3e 38 06 ec bc 8d c3 cd 3e ba b0 4f bf
       0.18914352 -0.02881156 0.40188256 -0.8112904
000270 27 88 22 bf 00 ea 82 bd 75 6f 7d bd 27 16 77 bd
       -0.63489 -0.06392288 -0.06187387 -0.06032386
000280 05 48 6d 3e 3e 75 7b 3d 38 29 49 be e9 c8 d3 be
       0.23172005 0.061391108 -0.1964463 -0.4136422
000290 d9 0a ad be 9f 9f 43 3d 7a 81 6c be cd 55 3e be
       -0.3379734 0.04775965 -0.23096266 -0.18587418
0002a0 1f e3 32 bd 22 a1 bf 3c 4d 0c 6e bf 85 56 7a bd
       -0.04367363 0.023392264 -0.9298752 -0.061117668
0002b0 8e 71 c0 be a9 4a 04 bf 3f eb cc bd eb 98 52 bf
       -0.37586635 -0.5167642 -0.10005807 -0.82264584
0002c0 4f 36 9f bf d7 e4 2e bf 24 78 f0 be c6 0d c5 be
       -1.2438449 -0.6831793 -0.4696666 -0.3848707
0002d0 fd 63 33 bf d4 81 ca 3d 9f 4b e5 3e fa 55 fa 3e
       -0.70074445 0.09888044 0.44784257 0.4889372
0002e0 15 c4 71 3f cb 41 5d bf 23 f0 a3 3e e7 4e be 3e
       0.9443982 -0.8642852 0.32019147 0.37169573
0002f0 dc 8b 36 bf 6b 97 eb be 85 13 a7 3f 1d 05 08 3e
       -0.7130716 -0.4601396 1.3052832 0.132832
000300 95 ae fd be 59 e2 37 3e d4 fa e7 bd 04 86 4b bf
       -0.49547258 0.17957439 -0.113271385 -0.79501367
000310 4a ea d9 be da 48 ac be 6a f2 26 be 52 14 2f bf
       -0.4256156 -0.3364933 -0.16303411 -0.6839038
000320 38 94 7d be da d4 fb bb ad d2 7b 3e 10 9a c0 bd
       -0.24763572 -0.007685286 0.24592085 -0.09404385
000330 9d 75 9b be 42 c5 22 3f b9 08 cc be 1b 26 6f 3d
       -0.3036317 0.6358224 -0.39850405 0.05838595
000340 7b 65 a4 be d0 ac 82 be dd 47 dd be a1 44 03 bc
       -0.32108673 -0.2552247 -0.4321889 -0.008011968
000350 6d d3 14 be 14 ea e4 3d 86 36 b2 3e 97 eb 90 3d
       -0.14533778 0.11177459 0.34807223 0.07076185
000360 b9 5c 50 be 54 b3 21 3f 79 de 51 3e 34 67 f6 3e
       -0.20347871 0.6316426 0.20495023 0.48125613
000370 32 40 c0 3f f5 b3 fb 3e e1 ac e7 3e 55 72 24 3f
       1.5019591 0.49160734 0.45249084 0.64236957
000380 b4 de d6 3e 3b 0d 20 be 8b 98 c7 be 7c 55 20 3f
       0.41966784 -0.15630047 -0.3898357 0.6263044
000390 d8 42 de bd da 99 0a 3f 46 8b ca 3e 10 e5 dd bd
       -0.10852593 0.5414101 0.39559382 -0.10834706
0003a0 50 52 be 3e 69 f0 e8 be a4 03 a3 3e e8 24 f3 3e
       0.37172174 -0.45495918 0.31838715 0.47489095
0003b0 52 f5 28 bf ea 6c 86 bd 34 f3 57 be 8e 54 2a 3e
       -0.6599933 -0.065637425 -0.21088868 0.16633818
0003c0 25 82 d1 bc 84 91 df 3d da 06 b3 bf 65 14 5c bf
       -0.025574753 0.10916427 -1.3986466 -0.8596862
0003d0 04 f4 e3 3e a0 55 88 bf 36 38 b3 be 50 ba 7d 3d
       0.44522107 -1.0651131 -0.35003823 0.06194526
0003e0 cb 35 ed 3d fd dd bb 3e ab cf 01 3d dc 23 07 be
       0.11582526 0.366928 0.03169219 -0.13197273
0003f0 be 66 0e bd 6a 79 3b be a8 72 ae 3d ff 74 67 bf
       -0.03476595 -0.18308035 0.08517963 -0.90412897

weight f4 [64, 32, 5, 5]
000000 1f 8e e6 3d 05 60 64 bd 83 79 ec 3c 3b 6a 57 be
       0.11257576 -0.055755634 0.028866535 -0.21036617
000010 06 42 9b 3d 7c 3a 84 3d a6 f8 44 3e fb 65 2e bd
       0.07580952 0.064564675 0.19235477 -0.042577725
000020 63 61 4c be 9b 7f fd 3d 46 20 45 be 84 f4 6a bc
       -0.19959025 0.123778544 -0.19250593 -0.014340524
000030 f6 f2 2c bc dc 54 05 3e 92 7d ef bc fc 8c 7d bd
       -0.010555973 0.13020653 -0.029234681 -0.06190203
000040 0e 80 12 be ea e2 e0 bd 70 e1 f9 bd 03 f2 81 be
       -0.14306661 -0.109807804 -0.12201202 -0.25379953
000050 25 1f 1a 3e ab 35 90 3e da 5f c6 bd 0a 13 2e 3e
       0.15050943 0.28165945 -0.09686251 0.1699945
000060 26 bf 28 3d 18 38 3a bc 5a ed e0 bc bf 3b 3d bd
       0.04119792 -0.011365913 -0.027456928 -0.046199556
000070 0f 8c f4 bd 57 4b d9 bd 5c 7a 2b be c8 24 b1 bd
       -0.119407766 -0.10610073 -0.16745895 -0.086495936
000080 83 02 34 be 8c 61 8c bd 55 db d2 3d 88 5e 93 bc
       -0.17579083 -0.06854543 0.102957405 -0.017989412
000090 00 8d 3e 3c b2 00 38 be 11 e2 0a be c0 a0 09 3e
       0.011630297 -0.17969015 -0.135628 0.13440228
0000a0 70 29 c5 bd 22 dd 9c 3d ea 81 49 be 25 8c 09 3e
       -0.09627044 0.07659365 -0.19678465 0.13432367
0000b0 a7 f5 00 3e 6e 1d ed bd d3 63 ad be dc 0f 9d be
       0.12593709 -0.11577879 -0.33865222 -0.30676162
0000c0 6c a7 a6 3d 56 c1 17 3c 6e 35 45 be e7 8b 18 3e
       0.08137402 0.0092624035 -0.19258663 0.14897119
0000d0 d6 a1 ee 3d e6 79 f3 bd f4 b4 1c be 34 4a aa bb
       0.116519615 -0.11888485 -0.15303403 -0.005196834
0000e0 b7 76 78 bd 10 0c 4a 3d 75 f4 8a be 26 88 f5 be
       -0.06066009 0.04932791 -0.2713963 -0.47955436
0000f0 c8 3e b8 3d 1e ed 61 be 73 fb e9 bc 2d 7f e7 bd
       0.089963496 -0.2206311 -0.028562283 -0.11303554
000100 0a 32 4d be 33 03 26 be b4 ba 1b 3d 84 dd 31 bd
       -0.2003862 -0.16212158 0.03801985 -0.043424144
000110 e3 3d b9 3c 82 8b 47 be 52 c0 db bb e4 50 8b bd
       0.022612518 -0.19486812 -0.006706276 -0.06802538
000120 4c 9e 0e be a3 64 23 be 35 22 98 be 5a 0e 41 be
       -0.13927573 -0.15956359 -0.29713598 -0.18853131
000130 d6 f5 df 3d 61 2a 2e be 2b bf 5a be 19 2a f2 bd
       0.10935561 -0.17008354 -0.21361987 -0.11824436
000140 04 74 0f be 77 b2 99 be 72 ee 20 be 67 84 74 bd
       -0.140091 -0.3001897 -0.1571596 -0.05969658
000150 0d be 54 3d 4f bf 16 be f8 57 64 3e 12 d3 dc bd
       0.05193906 -0.14721416 0.22299182 -0.10782446
000160 e7 b2 98 bd 5b ad 02 3e 18 82 31 bb 4e 83 93 3d
       -0.07455998 0.12761442 -0.0027085599 0.07202779
000170 0c c8 d7 3e 6e 16 c3 3c e5 27 92 bd b0 3f 0f 3e
       0.4214481 0.023814406 -0.071365155 0.13989139
000180 b5 b5 2d be fa ef 40 3e d1 66 94 be 17 6d 55 be
       -0.16963847 0.18841544 -0.28984693 -0.20842396
000190 ba a8 0f bc 68 42 bc 3e 5a 5d 7e 3d a1 5a e2 3d
       -0.008768255 0.36769414 0.062100746 0.11052442
0001a0 8a 63 fe bd 6b 85 2c be 0d 0c 9a bd 65 6d 4c 3e
       -0.12421329 -0.1684777 -0.0752183 0.19963606
0001b0 66 d4 ac 3d 38 54 0d 3e 15 a4 fb bc 2f 2a bc 3c
       0.08438949 0.13801658 -0.030717889 0.022969333
0001c0 5f 3e b7 bd 1b f7 8d be 4d f4 0d 3c 82 37 92 3a
       -0.08947443 -0.2772759 0.008664203 0.0011155459
0001d0 99 f4 19 3d ca 16 9c 3d c3 7d 01 3e 48 cb b6 be
       0.037586782 0.07621534 0.1264563 -0.35701966
0001e0 3c d7 f4 bd 1d 27 4f 3c 8b 23 39 3e 6b a5 bc bd
       -0.11955115 0.012643603 0.18079965 -0.092112385
0001f0 79 78 20 3e bd de 5b 3d e3 28 73 3d bf 0e 25 3d
       0.15670957 0.053679217 0.059365164 0.040297266
000200 c2 fb 09 bd 01 86 d5 3d e7 7d c2 3d c1 1b 1d 3b
       -0.03368736 0.1042595 0.0949667 0.0023972841
000210 fb 85 88 3c 2d 5d 35 3e f8 3c a0 bb c6 d5 15 be
       0.01666545 0.17711325 -0.0048900805 -0.1463233
000220 18 6c 31 bd 5d 18 49 be 20 45 19 be 98 a3 6b bc
       -0.043315977 -0.196382 -0.14967775 -0.0143822655
000230 39 24 2a 3c 18 49 ca bc 72 5d e3 bd 78 2b bf bd
       0.010384613 -0.024693057 -0.11101808 -0.09334463
000240 4e ef 00 bd 99 a0 98 3c 9c bd 52 3e bb 0a b3 be
       -0.03147822 0.018631266 0.20580143 -0.34969124
000250 cd 66 6b bd 13 58 5d be d3 ce 53 3e a5 30 8c 3d
       -0.057471085 -0.21615629 0.20684366 0.06845216
000260 6d 3d 09 3e 5f 90 76 3d 70 d1 c2 3d f1 42 a5 3e
       0.13402338 0.060196277 0.09512603 0.32277635
000270 88 9d 31 3c ee 1d ff 3d 21 98 e5 3b d9 c8 53 bd
       0.010840781 0.124568805 0.0070066606 -0.051705215
000280 fa ec 73 be 74 33 f0 bc 83 7b 58 3d cf 2f bf 3b
       -0.23820868 -0.02932141 0.052852165 0.0058345567
000290 bc 48 9d be cf 77 6b be fa f2 11 be 16 79 8a 3e
       -0.30719554 -0.22994922 -0.14252844 0.27045506
0002a0 60 63 81 3c 96 db 0c be 5b 8f 68 bd b1 1c 89 be
       0.015794456 -0.1375564 -0.05677734 -0.26779702
0002b0 72 1d 98 bd 9a 5a 82 bc 97 ad 60 3d f1 ad 81 bd
       -0.07427491 -0.015912343 0.05485305 -0.06332005
0002c0 f4 d1 b3 3c 09 4d 15 be 9a 79 7d bd fe fa 48 3b
       0.0219507 -0.14580168 -0.061883546 0.003066718
0002d0 f6 ac a2 3d 75 79 fa 3d e0 32 98 3c 49 8d 58 be
       0.07943146 0.12230197 0.018578947 -0.21147646
0002e0 a1 26 56 3e 24 e6 71 bd 84 d9 18 be 36 6c c1 3d
       0.20913173 -0.05905737 -0.14926726 0.09444468
0002f0 81 7c 0d be 11 fa 83 bd 6d 44 60 3e 26 4a 24 3d
       -0.13817026 -0.06444181 0.21901102 0.040109776
000300 97 07 2f be 0e 4d 8a be 47 3e dc bd aa b0 a0 bd
       -0.17092739 -0.27011913 -0.10754066 -0.07846196
000310 43 33 df bd 0f d8 22 bd 0b ae 18 bd 75 0f a7 be
       -0.10898449 -0.03975683 -0.037275355 -0.3262898
000320 2f b5 22 3c 4e c9 68 be 9d 41 80 be b6 fa b4 3d
       0.009930893 -0.22733042 -0.2505006 0.08836882
000330 7a 41 af bb 46 cd 41 3b bf de bf bd ef 70 a9 bd
       -0.0053483816 0.0029571815 -0.09368657 -0.082734935
000340 a9 82 40 bd 3f 3b d2 3c e5 31 d1 3c bd 61 27 be
       -0.046999607 0.025663016 0.025536487 -0.16345878
000350 02 8e 3e 3d 49 50 37 be 97 a5 a8 bd ae 9e 34 be
       0.046522148 -0.1790172 -0.08234709 -0.17638656
000360 9f ef a0 be db 3a 0e 3e 9c bc a9 be 57 dc e0 be
       -0.31432816 0.13889639 -0.3315171 -0.43918106
000370 27 0f 07 3e a1 53 91 bd fe f4 c1 bc f4 1d 0f bd
       0.13189374 -0.07096029 -0.023676392 -0.034940675
000380 6a 8f 35 be 57 cc ff 3d e1 79 73 be 46 5a 41 bd
       -0.1773049 0.124901466 -0.23776962 -0.047205232
000390 7f 26 4f 3d 3e 52 43 3e 83 68 38 3e 60 48 4a be
       0.050573822 0.19074342 0.18008618 -0.19754171
0003a0 0d 32 e7 3c b5 ec 81 bd aa 84 6c 3d 6f e5 ae 3c
       0.028222108 -0.063439764 0.057743706 0.021349637
0003b0 82 17 90 be d2 08 e9 3d e1 ee 00 bc e2 d0 52 be
       -0.28142935 0.113786355 -0.007869453 -0.20587495
0003c0 eb ca 63 bd b3 bb 7d bd e1 ab 11 3d 77 88 9c be
       -0.05561344 -0.061946582 0.035564307 -0.30572864
0003d0 e9 58 d4 3b cd b4 41 bd 85 c6 a1 bd 68 74 fe 3d
       0.0064803255 -0.047291566 -0.07899193 0.124245465
0003e0 26 f9 94 bd 2c 1a 04 3b 17 df 15 bd 2a 4c aa bd
       -0.07274084 0.0020157201 -0.03658971 -0.083153084
0003f0 01 ed fb bd 7c e7 66 be bb dc d4 be e2 7c a8 bd
       -0.12301064 -0.22549242 -0.41574654 -0.082269445

weight f4 [256, 256]
000000 97 9f b7 3d cc 84 1a be de f7 ad bd 2c 72 3a 3e
       0.08965986 -0.1508972 -0.084945425 0.18207616
000010 22 6d ed be 8c 5c e7 3d 99 d4 b5 bc d5 39 e3 be
       -0.46372324 0.11296949 -0.022196101 -0.4438006
000020 6a ae 08 be a1 b6 c0 be 12 b5 e7 3b fa b3 57 3e
       -0.13347784 -0.37639335 0.007071146 0.2106475
000030 d0 fd a0 3e cf 99 c7 be e7 7f 02 bf 33 ca 61 3e
       0.31443644 -0.38984534 -0.50976413 0.22049789
000040 62 ca 85 3d 31 88 d7 be ee d6 38 3e 9f d2 89 3d
       0.06532742 -0.42096093 0.18050739 0.06729626
000050 ec 0d a5 3e 83 9c e7 3d f7 31 80 3e 7b 74 a2 bd
       0.32237184 0.11309149 0.2503812 -0.07932373
000060 ea 13 3e 3d 7e 97 82 3c ea c8 9b bd 14 6d 08 3d
       0.04640571 0.015941378 -0.07606681 0.03330715
000070 08 af 4b be 29 a2 ba be 99 cd fc bd 91 f0 e6 3b
       -0.19890988 -0.36451843 -0.12343902 0.0070477207
000080 e5 c6 ff 3d 69 04 99 3e 4d be df 3d f8 67 0a 3e
       0.12489108 0.29886177 0.10924969 0.13516223
000090 2c f1 ca 3d 57 c6 cd 3e eb ee 01 3e 31 a5 1d 3e
       0.09909281 0.40190384 0.12688796 0.15395047
0000a0 69 a7 22 bd e2 e9 ca bd 71 d0 81 b9 22 4f a0 bb
       -0.039710436 -0.09907891 -0.00024760098 -0.004892246
0000b0 ad 93 c9 be 86 c2 86 3d a4 04 11 be 4c 76 0e bc
       -0.3937048 0.06580071 -0.14161927 -0.008695196
0000c0 65 e6 ab 3d 65 98 e0 3d b1 c2 3c bd 9d c3 0c bd
       0.08393554 0.10966567 -0.04608411 -0.03436624
0000d0 6c b9 13 3f 48 73 93 3e 65 67 f9 be 38 d7 9f bd
       0.57704806 0.2879889 -0.48711696 -0.078047216
0000e0 76 31 96 3e 5a bd 6d 3c 9e 13 c2 3d 55 fa 8f bc
       0.2933461 0.014510477 0.09476398 -0.017575422
0000f0 ee 07 7f bd 82 fc 29 bd 11 bc 2b be 62 e3 ec bd
       -0.06226342 -0.041500576 -0.1677096 -0.11566807
000100 a0 03 04 3e 15 a8 c3 be 8f 83 b6 be 85 99 62 3e
       0.12892008 -0.38214174 -0.35647246 0.22128876
000110 ed 8e 84 3e bf 48 f5 3e e1 56 f9 bd 8e af a7 3d
       0.25890294 0.47907063 -0.12174774 0.08187781
000120 b8 35 6c bf cc 8b ae be 23 b4 5c 3c 71 84 0d bd
       -0.9226947 -0.34091032 0.013470682 -0.034550134
000130 21 b7 72 3e a2 ed 8c be 4b 27 d3 bd 4d 59 9b 3d
       0.2370267 -0.2752505 -0.10310229 0.07585392
000140 2a 86 37 bf 70 10 12 3f d7 48 fe bd 6b 9d 87 3d
       -0.71689093 0.5705633 -0.12416237 0.06621822
000150 9a c0 87 be c7 45 b6 bc 55 69 ed bc 1e 6e da 3c
       -0.2651413 -0.02225007 -0.02898089 0.026663836
000160 72 29 5e 3d 22 fe 1b 3e 95 40 a9 bc 95 af 82 3e
       0.054238744 0.15233663 -0.020660678 0.25524583
000170 5a f5 dc 3e f2 0d f7 bd 6a 98 34 3e 9e bb b8 bc
       0.43155938 -0.12063207 0.17636266 -0.0225504
000180 ad 01 ce 3e b0 9d 0b bf de d1 78 3d af 7f 72 bc
       0.40235654 -0.5453749 0.06074702 -0.01480095
000190 85 3f dc 3d fe 63 8f bc 0a da 33 bc 31 40 4e bc
       0.10754303 -0.017503735 -0.0109772775 -0.012588547
0001a0 54 d3 55 3e f0 4f dd 3e b7 c1 29 3e c3 ed 51 3e
       0.20881397 0.4322505 0.16577803 0.20500855
0001b0 8c 46 40 3f 28 50 12 bf 2a 4f a1 be 6f 70 ea 3c
       0.75107646 -0.5715356 -0.3150571 0.028618066
0001c0 81 99 d0 be ac dc b7 bd 66 d3 5b be 07 9c 73 bd
       -0.40742114 -0.08977637 -0.21467361 -0.05947497
0001d0 86 44 c2 bc 98 00 b5 bc a6 fd a2 3b 4b 08 4b 3c
       -0.023714315 -0.02209501 0.004974085 0.012392114
0001e0 d7 5b f7 bd ca 9d 2c bf 88 00 90 3e 61 69 2b be
       -0.12078064 -0.67428267 0.28125405 -0.16739418
0001f0 4b 34 01 3e ba 7c b6 3d 32 18 8a bd 20 8a ca 3d
       0.12617604 0.089105085 -0.06742896 0.098896265
000200 be df 80 bc b1 51 1a 3e 19 1e 11 be a6 68 72 be
       -0.015731689 0.15070225 -0.14171638 -0.23672733
000210 0a 81 38 be 52 90 5d be 67 19 06 be 99 a6 95 bd
       -0.18017974 -0.21637085 -0.13095628 -0.073071666
000220 7e 84 ba be ef dc b0 be ac de cf be 5a 0b ab be
       -0.3642921 -0.3454356 -0.40599573 -0.33407098
000230 30 66 67 be 91 73 44 3e b1 e4 0a bc 1d 91 08 3e
       -0.22597575 0.1918471 -0.008477376 0.13336606
000240 f1 aa 64 3e 44 c1 83 be e5 93 14 bd 9d d0 0c bd
       0.22330834 -0.25733387 -0.036273856 -0.034378637
000250 a8 81 05 3d e1 7d 51 bd e9 f2 44 3e e6 ef 73 3e
       0.032594353 -0.051145438 0.19233288 0.23821983
000260 fb aa 83 be ca 6d 2a bc 7b 1f 6c 3e 42 5a f1 3d
       -0.25716385 -0.010402152 0.23058884 0.117847934
000270 20 59 ce 3c 72 03 95 3d 40 71 9c bc dc 1d a3 3d
       0.025188982 0.07276048 -0.01909697 0.079646796
000280 5d ae 09 3f 0c 16 9c 3e 24 4e 43 3e 65 27 82 bd
       0.5378168 0.3048557 0.19072777 -0.0635517
000290 09 e2 32 3e d6 b9 e8 bd da fc 7d 3d 29 95 ee 3d
       0.17469038 -0.113635704 0.062008716 0.11649544
0002a0 d3 df ef bd ec c5 21 3e bc 96 2c 3e 89 62 c5 3d
       -0.11712613 0.15798157 0.16854376 0.09637935
0002b0 95 93 b4 3e 62 85 76 3e 65 e1 af 3e f9 6b 44 bd
       0.35268846 0.24074319 0.3435165 -0.047954533
0002c0 ed 0f a9 bd 3a 4e ef bd 3e b4 63 bd 4e 74 c3 3d
       -0.08254991 -0.116848424 -0.055591814 0.09543668
0002d0 f6 4a 1b be 41 99 71 3d 93 c6 c0 3d 5c 73 a1 3d
       -0.15165314 0.058984045 0.09412875 0.07883331
0002e0 8b 11 d2 3d 29 89 84 be 2a 80 82 3d 61 53 17 be
       0.10257252 -0.25885895 0.063721016 -0.147779
0002f0 f4 04 96 be 73 d1 17 be c6 bc 3e 3d c1 53 0c 3e
       -0.29300654 -0.14825992 0.046566747 0.13703825
000300 9c 8b 32 3f 74 04 fc bd 4b 74 8e 3e af 05 b2 be
       0.69744277 -0.12305537 0.278231 -0.3476996
000310 2a ae 4c bf c6 df bf bd 1a 73 61 be ff 71 8d 3d
       -0.79953253 -0.09368853 -0.22016564 0.06906509
000320 6e 4c a3 3e e0 9c f5 bd 12 cb 6d 3e 9c a7 30 3d
       0.3189425 -0.11992812 0.23221996 0.043128595
000330 b8 19 9a be 5a c4 6f 3e 82 ad 74 3e fb 4b 4e 3e
       -0.30097747 0.23414746 0.23894313 0.20146172
000340 41 9c 89 3e 7b b9 a7 be f9 d5 20 3e 21 ca 8f bd
       0.26877025 -0.32758698 0.15706624 -0.07020975
000350 f5 89 b2 be 7c 87 10 bd 58 b6 20 3d 8a 57 da bd
       -0.34870878 -0.035285458 0.039236397 -0.10661228
000360 cd d9 b6 bd 90 6f 0f be 6d 98 4e 3d 45 0f 8a bd
       -0.08928261 -0.14007401 0.050438333 -0.06741194
000370 b8 d4 bb be c3 b7 b8 3e 0d 96 d4 be 64 c2 04 3e
       -0.3668573 0.360777 -0.4152073 0.12964779
000380 1f 59 8d 3d d0 0d 20 bf 1b ea da be 1c a8 85 3e
       0.06901764 -0.62521076 -0.42756733 0.2610482
000390 a5 35 2c 3e 95 70 0e 3d a8 41 50 bb 71 2e 67 3d
       0.16817339 0.034775335 -0.0031777415 0.056440774
0003a0 10 0d fa 3e 17 5e 8f bd 4e 28 b1 bd 1b 6d bb 3d
       0.4883809 -0.07000368 -0.08650266 0.091516696
0003b0 f2 7b a4 3b 4f 9e 7f 3e 38 ae 98 b8 e6 31 8c be
       0.0050196582 0.24962734 -7.2803756e-05 -0.2738182
0003c0 93 52 04 bf d3 aa 04 3e 90 7c 05 bf e3 f4 36 3d
       -0.516885 0.1295579 -0.5214319 0.044667136
0003d0 f8 c8 91 3e 17 b6 e1 3c f6 71 5f 3e 6e 2e 3f be
       0.2847364 0.027552648 0.21820816 -0.18670055
0003e0 0c 25 1a 3d ae 5e d5 3d 54 bf 80 bb c2 d1 4e 3c
       0.037632987 0.10418449 -0.003929058 0.012623252
0003f0 52 53 47 be fe 03 e5 be e4 4a 97 be b5 1b cb be
       -0.19465378 -0.44729608 -0.29549325 -0.39669576

bias f4 [256]
000000 fe 4c 55 3d 54 1f 8a 3d a9 e0 1d 3d 9a 45 70 3c
       0.05207538 0.067442566 0.03854433 0.014665032
000010 c7 a6 28 bc c4 aa 31 3c bd 66 6b bd 87 dd 01 3b
       -0.010293669 0.010843936 -0.057471026 0.0019815878
000020 c1 d5 27 3c 55 3a de bc f0 85 b4 bc c2 aa 46 bd
       0.010243834 -0.027127424 -0.022036523 -0.04850269
000030 c7 53 11 bd ad 99 ca 3c 47 1b 53 bd 62 ab 84 3c
       -0.035480287 0.024731481 -0.051539686 0.016195003
000040 0b 95 19 3d 0d 81 ba 3c ce 6f 4b 3d 06 0b cb bc
       0.037495654 0.022766614 0.049667172 -0.02478553
000050 74 fa 95 bd cf a2 bb bd 23 a4 5c bb a0 c2 83 3d
       -0.07323161 -0.09161913 -0.003366717 0.06433606
000060 5f c6 3e bd c9 56 52 3d 49 8c 08 3d f9 fa 22 bd
       -0.0465759 0.051352296 0.03333691 -0.039790127
000070 8a ed 31 bd cb 68 b0 bb 73 36 18 3d dd 27 c3 39
       -0.043439426 -0.005383586 0.0371613 0.00037223
000080 7a c0 79 bd 8b 40 99 bd 03 81 1b bd ad 16 99 bc
       -0.060974576 -0.07483014 -0.037964832 -0.01868757
000090 a4 1a c9 3d e8 24 7d bc 51 30 07 3d 47 98 61 bd
       0.098195344 -0.015450694 0.033005062 -0.055076864
0000a0 3a 8c 4c 3d 48 7e 06 3e ff 14 1f 3e f3 3c 48 bd
       0.049938418 0.1313411 0.15535353 -0.04888625
0000b0 1a 86 09 bd 8c 31 13 3e 2c b4 6e 3c ee 19 c1 3d
       -0.033575155 0.1437437 0.0145693235 0.09428774
0000c0 d9 16 98 bc 76 33 21 bd 15 0a 49 bc 0f c9 d0 bd
       -0.018565582 -0.039355718 -0.01227047 -0.10194599
0000d0 d7 bb 8c 3c 58 78 26 3c d5 fc 9b 3d c9 fd 26 3c
       0.017179413 0.010160528 0.07616583 0.010192343
0000e0 74 d6 a2 bc 8c 09 19 bd 48 8f d9 bb 86 e5 bf 3d
       -0.01987765 -0.03736262 -0.006639395 0.0936995
0000f0 e1 2f b2 bb 17 bc 1f bd 89 bd f4 3c 8f 6b 62 bd
       -0.0054378365 -0.038997736 0.029875534 -0.055278357
000100 61 70 44 bd dd 9c 9c bd ee 71 f6 3d f2 1b 0d 3e
       -0.047958735 -0.07647107 0.12033449 0.13780192
000110 03 31 0e 3d b5 61 b4 bd 5c 25 32 bc 0c a4 73 bd
       0.03471471 -0.08807699 -0.010873165 -0.05948262
000120 17 f9 b4 ba 4b e3 3b 3d c1 a2 2c 3e a2 e0 9e 3d
       -0.0013807145 0.04587106 0.1685896 0.07757689
000130 f3 b7 65 3d 5f f5 ba bd 68 a7 de 3b 99 d7 83 bd
       0.05608363 -0.09128832 0.0067948587 -0.06437606
000140 00 8b 8c bd 1a a4 da bd 64 5f 14 bd 3d c9 c4 3c
       -0.0686245 -0.10675831 -0.036223784 0.02402174
000150 a3 e9 b3 bc ed 83 79 bd ec 9d 60 bc 98 40 d5 bd
       -0.021961993 -0.06091683 -0.0137095265 -0.10412711
000160 49 fa 01 3d 8e fd bc bd dd 34 58 bc 08 e3 9e bb
       0.03173283 -0.09228049 -0.013196197 -0.0048488416
000170 08 63 b7 3d 1b 0f 6c 3d ba 98 a5 bd e5 da aa bd
       0.089544356 0.057631593 -0.08085771 -0.08342532
000180 e6 3f 39 3c 26 9f 1a 3d a9 7e 42 bd e1 29 d1 3c
       0.0113067385 0.037749432 -0.047484074 0.025532665
000190 e1 54 5e 3a 96 24 06 be f4 d3 6c bd b9 9c e1 3d
       0.0008481276 -0.13099894 -0.05781932 0.110162206
0001a0 53 b7 9f bd 25 80 11 bd 60 ea 3e bd 94 56 c7 bd
       -0.07798638 -0.0355226 -0.046610236 -0.0973331
0001b0 09 6d be 3d f8 84 c1 3c 8b c9 86 bd ab 0d 4b 3d
       0.092981406 0.023622975 -0.0658141 0.04957358
0001c0 96 e0 01 be a6 f6 86 bc a5 d0 22 3d f5 45 cb bc
       -0.12683329 -0.016475033 0.03974976 -0.024813632
0001d0 e8 ba 91 bd 87 18 32 bd b6 13 a0 bd 9e 68 c7 3d
       -0.07115728 -0.043480422 -0.078162596 0.09736751
0001e0 fa 79 63 3d 4b c2 53 3d 3a aa fb 3d 1d 2d ac 3d
       0.055536248 0.051698964 0.122883275 0.08407042
0001f0 0f fa ef 3d 78 6f 50 ba 11 e9 8a 3b dc 8d 04 3e
       0.11717617 -0.00079511805 0.0042392095 0.1294474
000200 63 1d 8e bd ce fa 67 bd b3 82 8d bd c2 9f e9 3b
       -0.06939199 -0.05663567 -0.069096945 0.0071296403
000210 5c 2f 6e 3c 98 74 38 3a 07 26 8b 3d d6 c9 5f 3c
       0.014537659 0.0007036417 0.067943625 0.013658961
000220 2b e0 cc 3d 6c 44 8d bc f2 6f f9 3d 50 56 75 bd
       0.10003694 -0.01724454 0.12179555 -0.059896767
000230 54 76 81 bd 3e a6 8a 3d 0d 01 94 3b 73 4c e0 3d
       -0.063213974 0.067699894 0.004516727 0.109520815
000240 5e 28 42 3e 60 e9 11 3d bb 4d 87 bd 3d bf 11 bd
       0.18960711 0.035622954 -0.06606623 -0.03558277
000250 d3 55 6e 3e c6 c9 e1 3d 5c 37 86 3d 4c 38 ee bd
       0.23274927 0.11024813 0.06553528 -0.116318315
000260 59 05 02 bd 1c f8 15 bd c5 07 d9 bd fd dc ad 3c
       -0.03174338 -0.03661357 -0.10597185 0.02122354
000270 fe 58 7b 3d 6f 7f a8 3d 13 7c cf 3c c5 64 99 3c
       0.061364166 0.08227431 0.025327718 0.018724808
000280 3a 9b e3 3d a4 80 f4 3d c9 e6 e5 bc d9 e0 eb 3c
       0.111135915 0.11938599 -0.028064149 0.02879374
000290 a9 09 a7 3d 3f 1a 10 bd 8f 7d ce 3d 66 60 54 bc
       0.081561394 -0.03518128 0.10082542 -0.012962436
0002a0 11 ce dd bc 48 b4 df bd 06 45 06 3d 25 87 c9 bc
       -0.0270758 -0.10923058 0.03278067 -0.024600575
0002b0 71 45 a9 bc ff 69 f2 bd 24 30 bf bd 35 1a b1 bd
       -0.020662995 -0.118366234 -0.09335354 -0.08647577
0002c0 fa 36 25 3e 1b 90 32 be 30 eb 08 bd e4 9e 71 3c
       0.16134253 -0.17437784 -0.033427417 0.014747355
0002d0 5c bf 95 3d 32 e4 29 3d 6a d3 ee 3c 6a 19 ab 3b
       0.073118895 0.04147739 0.029153544 0.0052215355
0002e0 82 f8 bf 3d 3c 16 60 ba 75 5b 61 bd fa b3 b5 bd
       0.09373571 -0.0008548235 -0.05501886 -0.088722184
0002f0 75 49 1b 3d e4 9d da bd f5 c6 f2 3b 2b f5 59 3d
       0.03791185 -0.106746465 0.0074089714 0.053212326
000300 29 db 23 3e 68 2b fa 3c f8 60 1c 3d 23 71 8e bd
       0.16001572 0.030538276 0.038178414 -0.06955173
000310 75 72 a1 3d 12 2d f7 3d 55 d3 6e 3d ed 35 2c 3c
       0.07883159 0.12069143 0.05830701 0.010510904
000320 36 f4 bf 3c 33 0a 18 bc de eb 3b 3d 23 70 e0 bc
       0.023431879 -0.009279775 0.045879237 -0.027397221
000330 d4 29 92 bd 58 f9 60 bd 3e d8 95 bd 89 6a 0f bd
       -0.07136884 -0.054925293 -0.073166355 -0.03501371
000340 58 ae 64 bd a8 0d c0 3b 56 d2 2d 3e 08 f3 ab bd
       -0.05583033 0.005861003 0.16974768 -0.08395964
000350 f0 c0 a1 bb 71 8a 97 3d 00 c4 8a 3d 2e 40 11 be
       -0.00493633 0.073994525 0.06775665 -0.14184639
000360 3e f5 81 bc 8d f0 01 bd f0 20 90 bd bf b9 87 bd
       -0.01586401 -0.031723548 -0.07037532 -0.06627225
000370 0d a5 f4 bb 67 3b 61 3d 7b d1 cb 3d 0e 4f 96 3d
       -0.0074659646 0.05498829 0.099520646 0.07339297
000380 1b a0 db bb 2e 45 47 bc ff 54 0a 3b 5b 00 8d 3d
       -0.0067024357 -0.01216249 0.002110779 0.068848334
000390 1e 6a 2f 3d bd 9d 7b bb 6a 0e f2 bc c9 a1 93 bd
       0.04282581 -0.003839358 -0.029547889 -0.072085924
0003a0 38 e9 a3 bd 50 4f a7 3c 52 55 19 bd fa 4d 7a bd
       -0.08003467 0.020423561 -0.037434883 -0.06110952
0003b0 b1 5d ba bc 5c 09 dd 3c 10 92 37 3d cd 4f fe 3c
       -0.022749754 0.026982002 0.04481703 0.031043911
0003c0 90 b2 43 3d 58 c3 4b be 60 bd 84 bd ef b9 8a 3c
       0.047777712 -0.19898736 -0.06481433 0.016934363
0003d0 1d 5f 49 3d 54 34 21 be 3b 57 37 3b 2e 7d e2 3c
       0.049162973 -0.15742618 0.0027975577 0.027647581
0003e0 43 27 3a 3d b6 4e 87 3d 19 ba 14 3d b2 26 85 bd
       0.0454476 0.0660681 0.03631029 -0.06501521
0003f0 92 0c aa 3d 41 33 a9 3d 5f b5 ea bb 73 c4 45 be
       0.08303179 0.08261729 -0.0071627344 -0.1931322

weight f4 [256, 256]
000000 c8 e2 d2 3c 6c bc 84 3d ec 73 67 3d 47 1e 93 3d
       0.025742903 0.06481251 0.056507036 0.07183509
000010 a6 7c 06 3c 21 6c 10 bd f9 fe 41 bd 04 ae f9 3c
       0.008208429 -0.03525937 -0.0473623 0.030478485
000020 cf 53 3f 3d 0c 0c 5a bc 21 ef ad 3d ad c7 b8 3c
       0.046710785 -0.013308536 0.08492876 0.02255615
000030 a0 29 f9 3c 6a f9 21 3d 0e a3 0f 3d 5e ab f0 3d
       0.030415356 0.0395445 0.03506761 0.11751436
000040 54 c3 09 3b ac f4 8c 3c 4b e6 84 3d b2 35 bb bc
       0.0021020966 0.017206512 0.064892374 -0.022852752
000050 6e 3d d1 bc ae bd b7 bc fb 1b 0a bd dc 4e de bc
       -0.025541987 -0.022429314 -0.03371809 -0.027137212
000060 3b 5a 2e 3d 66 53 c6 bb f3 eb 46 3d 9b 86 db 3b
       0.04256652 -0.0060524223 0.048564862 0.006699396
000070 26 83 39 3c 34 56 78 bd 38 5e 26 bd 52 c7 97 3b
       0.011322772 -0.060629085 -0.040617198 0.004631915
000080 a5 b0 af bc b0 60 96 bd d7 c9 8a 3d 5b 75 81 bc
       -0.021446535 -0.073426604 0.06776779 -0.01580303
000090 de 90 32 bd 53 54 1c bd 3a f6 c7 3c 67 96 e5 3c
       -0.043595187 -0.038166355 0.024409402 0.028025819
0000a0 54 46 91 3c ad e7 50 3d 9e 89 10 bc 57 b2 d4 bc
       0.01773373 0.051002193 -0.008821873 -0.025963945
0000b0 f7 05 ce bc d2 ae 49 bb bb 8b 1e bd a9 6a cd 3c
       -0.025149329 -0.0030774367 -0.038707476 0.025075274
0000c0 f5 5c e3 3c 5d 53 da bc 76 2a b0 ba 3f d2 29 bd
       0.027754286 -0.026651079 -0.0013440389 -0.041460272
0000d0 e2 6b 55 bd 0e d6 8a 3c 5c d5 3b 3d 92 da 99 bd
       -0.05210484 0.016947772 0.045857772 -0.07512392
0000e0 ce f6 3a 3d 04 92 23 3c c0 4f ea 3c d8 94 60 3d
       0.045645528 0.009983543 0.02860248 0.05482945
0000f0 f7 d0 b4 3d 6b 5f 88 bd a6 c6 b9 3d 4d 28 52 3b
       0.088289194 -0.066588245 0.09071092 0.0032067478
000100 72 de 39 3c 4f 1e 94 bd b1 43 95 3b 3f 87 50 bd
       0.011344539 -0.072323434 0.0045551886 -0.05091023
000110 9f 83 b3 3b 8c 31 f7 3a bf 84 0e 3d be e8 0e bd
       0.005478337 0.0018859371 0.034794565 -0.03488993
000120 51 d4 aa bd 30 87 60 3d 67 15 b4 3c b0 c9 22 bc
       -0.083412774 0.054816425 0.021982862 -0.009935781
000130 c4 23 98 bd 4b 8c 53 bc af 1e 4d bc f4 1d c1 3d
       -0.07428697 -0.012911866 -0.012519523 0.09429541
000140 4a 9b 52 3d f5 a2 e3 ba 31 71 8e bd 68 7f 8d 3c
       0.051417626 -0.001736729 -0.06955183 0.017272666
000150 7a c9 de 3b 98 e7 cd bc 9f 58 58 bd e0 29 45 bc
       0.00679892 -0.025134847 -0.05281889 -0.01203391
000160 86 f4 8b 3c 08 64 49 bd 4b da 8d 3d d8 80 e6 bc
       0.017084371 -0.049167663 0.06926402 -0.02813761
000170 a1 ae 61 bb 82 23 df 3c a3 94 5a 3b 8b cd 46 ba
       -0.0034436362 0.027238611 0.0033352755 -0.0007583729
000180 8f 55 07 bd 80 54 8a 3a f3 9d 46 3d fd 9e 50 3d
       -0.03304058 0.0010553747 0.048490476 0.050932873
000190 2f ca a5 3d f1 d0 19 bc 8c 10 aa bc 32 50 da 3c
       0.08095204 -0.009388194 -0.020759843 0.026649568
0001a0 35 6a 60 bc 08 f8 85 bb eb 4a 3b bd ee 4b 94 bc
       -0.013697197 -0.0040884055 -0.045725744 -0.018102612
0001b0 35 bb a3 bd ee c7 18 3d bd 43 0d 3c 3f 67 65 3c
       -0.07994691 0.037300043 0.008622107 0.014001667
0001c0 23 fb 77 3c 57 3e 92 3c 39 f4 bd 3c d8 ec c5 3c
       0.015135559 0.017851992 0.023187743 0.024160787
0001d0 69 30 97 bb 47 d4 55 3d c6 b8 3e 3d dd 46 cf 3c
       -0.0046139252 0.052204397 0.046562932 0.025302345
0001e0 08 97 35 bc 7b 3a 9c bc be 9a 99 3d 21 59 54 3d
       -0.011083372 -0.019070854 0.07500218 0.051842812
0001f0 2e 57 e7 3c 3e ae 92 3c b6 72 37 bd 24 f6 e4 3c
       0.028239813 0.01790535 -0.04478713 0.0279494
000200 4a d1 aa 3a 0b d6 9f bc e9 ae 20 3d ac 38 38 bc
       0.0013032344 -0.019511243 0.039229307 -0.01124398
000210 4a 62 2e 3d 99 30 59 bd 9f e0 c5 bb cc f4 55 3d
       0.042574205 -0.053024862 -0.00603874 0.05223541
000220 27 dd 07 bc 22 b3 63 3d ee c9 41 bd c2 6d 39 3d
       -0.008292473 0.055590756 -0.047311716 0.04527069
000230 7d db c1 3c 42 c2 d5 3d 7d ac 26 bd c5 49 8c 3d
       0.02366423 0.10437442 -0.04069184 0.06850008
000240 92 3f 35 bd 78 b8 1f 3d fa 6a 7b bd 1a f8 f4 3c
       -0.04425008 0.038994282 -0.061381318 0.02990346
000250 24 d9 5e 3d 16 04 15 bd 00 e5 14 3d 32 c3 6f bd
       0.0544063 -0.03638085 0.036351204 -0.058535762
000260 0e 1b 8d bb ff 1e 84 3b 5f a8 2e bd 2c e8 92 3d
       -0.0043062037 0.0040320153 -0.04264104 0.071731895
000270 26 bc bf 3c 79 1a cd bc 6a 89 6c 3c 65 9d 7f bd
       0.023405146 -0.025037037 0.014437059 -0.062405962
000280 09 b3 44 3b d7 82 b9 3c 1d 17 94 bb 62 02 0d bc
       0.003001394 0.022645397 -0.004519357 -0.008606525
000290 a5 fa 90 bc 10 0c 84 3b 45 0d 83 3c 94 e1 92 3c
       -0.017697642 0.0040297583 0.015997538 0.01792983
0002a0 54 24 2c 3d 0d e9 f0 3d 46 5c 2a 3d a7 ae 15 3b
       0.042026833 0.11763201 0.041591905 0.0022839697
0002b0 cd 19 df 3c 49 27 42 3d f0 1f 3e bd f0 8c fb 3c
       0.027233982 0.047400746 -0.046417177 0.030706853
0002c0 4a 41 8f 3d d4 c6 a1 bc 28 6d da bc db 13 a2 3d
       0.06994875 -0.019748129 -0.026663378 0.079139434
0002d0 26 a6 81 bc e6 28 4d 3d 4e 14 0d be ad b3 a1 bc
       -0.015826296 0.050087832 -0.13777277 -0.019738996
0002e0 3d c1 3d bd 90 f2 16 3d 9c 91 a0 bb 8a 86 fa bd
       -0.046326865 0.03685242 -0.0049001705 -0.122326925
0002f0 db 85 6e bd e8 e6 79 3d 5a f1 73 3d cb 8f 2b 3d
       -0.058233123 0.061011225 0.059556343 0.04188518
000300 c5 9a 93 bd 77 4c a4 bc e7 7b 52 bd 80 7f ca bc
       -0.07207254 -0.020055993 -0.051387694 -0.024719
000310 d3 b6 ab bd f6 96 cb bc 8d 24 18 3d be 34 1e 3c
       -0.0838448 -0.024852257 0.037144233 0.009656129
000320 bc 1e 51 3d 47 61 0a bd 38 9d 5c 3d 97 12 9b bd
       0.0510547 -0.033784177 0.053860873 -0.07571905
000330 69 b4 87 3c 83 55 96 3c 71 c0 b3 bc 2b 8f e1 bb
       0.016565518 0.018351322 -0.02194235 -0.006883522
000340 a7 a7 11 3d 7d 76 07 3e 6b 64 a6 bd 8b 71 69 bc
       0.035560276 0.13228793 -0.08124622 -0.014248262
000350 6d 47 df bc 9c 8e 9f 3d 43 71 a9 bc 61 01 01 3d
       -0.027255738 0.077908725 -0.02068389 0.031495456
000360 8b 09 62 3b 25 17 5d 3c 21 8d ec bd a1 35 2d bd
       0.0034490551 0.013494288 -0.11550356 -0.042287473
000370 c1 77 37 3c 9a 9c 29 bd b4 60 dd 3c 2d 34 e2 3d
       0.011197985 -0.041409113 0.02702365 0.11045108
000380 1b eb bc 3c 5a 33 59 bc d8 08 c4 bc 43 48 64 bc
       0.023061326 -0.013256872 -0.023929998 -0.013933244
000390 61 0d ef 3b c8 f4 2e 3d d3 a0 2d bd a0 03 11 bd
       0.007295296 0.04271391 -0.042389702 -0.035403848
0003a0 9f ed fe bc 1c 45 f0 3c 4e dd a1 bc 39 2b a9 3b
       -0.031119166 0.029329829 -0.019758847 0.0051626232
0003b0 18 04 1c 3d cc 55 2c bd 9e 3b ac bc 1b 51 d4 3c
       0.03808984 -0.04207401 -0.021024521 0.02591758
0003c0 96 8c 85 bd 95 06 1c 3d 90 66 3c 3c 80 43 48 3d
       -0.06520955 0.038092215 0.011499062 0.048892498
0003d0 bf e7 09 bd 4f 52 41 3b 08 04 ab bc 26 8e 45 3d
       -0.033668276 0.0029498523 -0.020875946 0.048231266
0003e0 b9 5a 84 bd 53 16 b1 bc 85 4a e6 3c 85 81 3c 3d
       -0.064626165 -0.02161709 0.028111706 0.046021957
0003f0 ec 1f 5d bc f4 b9 94 3c b0 e1 4a 3a 3c c0 0a bd
       -0.01349638 0.018155076 0.00077393185 -0.033874735

bias f4 [256]
000000 14 29 7c bd 1b 8b 34 bd 72 17 0a 3c 72 e5 5e 3d
       -0.061562613 -0.044077974 0.008428441 0.054418035
000010 4d 71 69 3d 83 ff c1 bd 26 29 62 be 3b b0 bc 3c
       0.056992818 -0.09472563 -0.2208601 0.023033252
000020 fa f2 b9 3d f9 e7 36 bd c3 be a3 bc fa ca 51 3d
       0.09079547 -0.04465482 -0.019988423 0.051218964
000030 61 c1 5d bd 07 bf a3 bd 8b 5f 02 bd 54 7c ba bd
       -0.0541395 -0.0799542 -0.031829398 -0.09105745
000040 9d ce a5 3b 1b 53 ae bd 04 0a 2e 3d 66 2d 20 3d
       0.0050600306 -0.08511945 0.04249002 0.039105795
000050 8b f5 4d 3d da 23 d4 bd bb 76 36 bd 7c 3b 63 bd
       0.050282996 -0.10358401 -0.044546824 -0.05547665
000060 a4 fb 7b bc 32 e5 58 3d c6 a4 d6 3d 7e bc 25 be
       -0.01537982 0.052952953 0.10480647 -0.16185185
000070 e1 0f 7e 3d 13 c0 1c bd 16 dc a1 bd bb 90 70 bc
       0.062026862 -0.038269114 -0.07903306 -0.014682944
000080 f1 05 53 bd 41 4f 11 3e f3 1e 3e be 19 3e 04 bd
       -0.051519338 0.14190389 -0.18566494 -0.032285783
000090 36 c7 84 39 49 e2 32 bd 3e fb 0c 3e 2d 73 2a bd
       0.00025325426 -0.043672834 0.13767716 -0.041613746
0000a0 81 44 c9 bc 34 b8 24 be 14 29 69 3d 00 35 f0 3d
       -0.024568798 -0.16085893 0.05692394 0.11728859
0000b0 79 88 a6 3d f0 66 e9 bd 9c eb 05 be 81 30 8a bd
       0.08131499 -0.11396587 -0.13078159 -0.06747533
0000c0 82 e0 a3 3c 73 bd a4 3c 49 cf bf bc d6 a3 80 3c
       0.020004515 0.020109868 -0.023414271 0.015703123
0000d0 be 11 ce 3d 3c 4a 8a 3c 2b 9c b9 3c ab 11 b4 3d
       0.10061978 0.0168811 0.022657475 0.087924324
0000e0 7c b5 8a 3c 33 00 96 3d dc 51 45 bd ce 3f 9f bd
       0.016932242 0.07324257 -0.04817377 -0.07775842
0000f0 9e 23 f3 bd e9 7c f8 bb 08 9b cd bc 59 40 9c 3d
       -0.11872028 -0.00758325 -0.025098339 0.07629461
000100 39 a1 34 3d 5b 77 d6 bc a7 59 b1 bd 7f 04 51 3c
       0.044099066 -0.02617996 -0.08659678 0.01275742
000110 9f 39 9a bd fc 80 2d bd 13 09 fd bc 6d fe f9 bd
       -0.075305216 -0.042359337 -0.030888116 -0.12206731
000120 23 13 7d 3d 2d 52 a8 3d 78 0c a9 3a fc ee 34 bc
       0.06178583 0.08218799 0.0012897393 -0.011043306
000130 44 a4 06 bd e7 f6 8e bd 41 30 96 3b 09 52 86 bd
       -0.0328715 -0.06980687 0.004583389 -0.06558616
000140 e1 d1 e5 bd 96 a6 61 bd a9 0a 20 3d 3b 80 17 bd
       -0.11221672 -0.05509051 0.039072666 -0.036987524
000150 b6 fb ff 3d 3e 29 07 be 20 06 85 bc 14 36 04 3c
       0.12499182 -0.13199326 -0.016238272 0.008069534
000160 c1 79 22 bd e2 76 9e 3d 0d 31 38 bc a5 56 35 3f
       -0.039666895 0.07737519 -0.011242163 0.70835334
000170 f5 04 91 3b 79 63 79 bd 81 3b 15 3c 8c 50 50 bd
       0.0044256398 -0.06088588 0.009108425 -0.050858065
000180 a0 61 3f 3d 93 aa b5 3c 71 50 9d 3d 3e de 25 3c
       0.04672396 0.022176063 0.076813586 0.010123787
000190 9e 77 24 3e 42 0d b5 3d 67 2f 1c 3e a0 d3 4c 3c
       0.16061255 0.08840419 0.15252458 0.012501627
0001a0 58 07 7c bd 42 26 82 bc 72 4b 8d bd 11 b7 e3 bd
       -0.06153044 -0.015887383 -0.06899156 -0.111189015
0001b0 bc ed 2a 3d 9d 9d 1b ba fa d6 66 3d f8 39 bc bd
       0.041730627 -0.0005936267 0.05635736 -0.09190744
0001c0 52 52 d8 bc 2d 78 be 3d 2f 05 bc 3d 4d d4 91 3c
       -0.02640644 0.093002655 0.09180676 0.017801428
0001d0 20 3d 48 3d e5 94 ba 3d 08 e3 da 3d e3 61 3f 3c
       0.04888642 0.09110431 0.10687834 0.011681053
0001e0 de 09 16 3e 91 a7 3a bd 53 a6 a8 bd 72 4c 08 3e
       0.14652202 -0.04556996 -0.08234849 0.13310412
0001f0 a4 fe f3 3c c9 78 e3 bc f6 9c 01 3e 32 71 d7 3b
       0.029784508 -0.027767556 0.12657532 0.006574773
000200 b2 41 4c bd ea eb f8 bb 68 48 9f 3d 77 9d b2 bd
       -0.04986734 -0.0075964825 0.07777482 -0.0872144
000210 8f e5 d2 3c 88 99 5f bc 4a 78 03 be 0c b7 c3 bd
       0.025744228 -0.013647445 -0.12838855 -0.09556398
000220 10 42 f4 3d 7d ae b0 3d f1 c8 c7 bd 37 29 ee 3a
       0.11926663 0.08627031 -0.097551234 0.0018170242
000230 00 c2 52 3c 2b b3 2f bc 7b 5d 4a 3d b6 53 90 3d
       0.012863636 -0.010723869 0.049405556 0.070472166
000240 13 67 cd 3c ad 0c cb bd 1c 44 de bc 21 e5 e5 bc
       0.025073564 -0.09914527 -0.027132086 -0.028063359
000250 8b 42 ae 3d c4 4b b9 3c 7a d8 14 3d fd 7e 86 3c
       0.08508786 0.022619136 0.03633926 0.016417975
000260 0d 28 98 bc 42 82 1d bc f2 46 06 3a aa 50 ae 3c
       -0.018573785 -0.009613575 0.0005122266 0.021278698
000270 22 7a 3f 3e 21 19 c5 3d 04 15 75 bd 27 d5 b3 3d
       0.18698934 0.096239336 -0.059834495 0.0878089
000280 78 ae e8 3d 1f e8 83 bd a5 32 04 be c9 69 35 bd
       0.11361402 -0.06440758 -0.12909944 -0.044290338
000290 86 01 40 3d 34 c7 a5 bd 75 03 a4 bc 40 2d 1b bd
       0.046876453 -0.080946356 -0.02002118 -0.03788495
0002a0 97 8c 13 3e 1e 61 e0 bd 0f cb e7 bd a7 87 9b bd
       0.144091 -0.10956024 -0.11318027 -0.07594233
0002b0 81 7e ce bd 84 65 a9 3d 9c 2c 3a bd 4d 1a f0 bd
       -0.100827225 0.08271316 -0.0454527 -0.117237665
0002c0 a3 32 d5 3b 95 20 4b bd 1f 5e ad 3d bd 07 07 3d
       0.0065062805 -0.04959162 0.08465218 0.032966364
0002d0 a1 be a2 3d e1 4a a1 bc 76 20 b4 bd e2 77 2c 3d
       0.07946516 -0.019689025 -0.08795254 0.042106517
0002e0 ff 90 2c 3e a2 82 02 be 21 e0 da 3d 25 1e 13 be
       0.16852187 -0.12745145 0.106872804 -0.14366968
0002f0 5f cf dd bc 50 67 fe 3c cb 54 34 3c 27 2b f5 3d
       -0.027076421 0.031055123 0.011006544 0.11971121
000300 c8 60 67 bd 70 61 9b bc d7 95 d6 3d 96 fe e4 3c
       -0.056488782 -0.01896736 0.104777984 0.027953427
000310 dd b1 a8 3d 15 48 a5 bd dc cf c8 3b a6 d4 f9 bc
       0.0823705 -0.08070389 0.0061282944 -0.030496906
000320 9f 50 26 3f e0 dc a7 bc 34 95 cf bc 01 da e4 bd
       0.6496677 -0.020491064 -0.0253397 -0.111743934
000330 ce 9d 93 3d dc 4d 81 bd a6 e7 27 3d ae cd 24 bd
       0.07207833 -0.063136786 0.0409924 -0.040235214
000340 76 54 0a bc f8 30 19 bc d0 01 f4 bd 4b 80 d0 3a
       -0.008442989 -0.009350054 -0.11914408 0.0015907375
000350 b4 1b 61 3d 41 4e e3 ba 1e 19 0b bb d9 40 aa bd
       0.05495806 -0.0017342047 -0.0021224688 -0.0831315
000360 1b 08 62 bb 06 11 8a 3d 07 df c8 3d ec c1 ef bc
       -0.0034489695 0.06741528 0.09808164 -0.029267274
000370 b5 34 15 3d d2 86 d0 bd 9b fe 0a 3d 7c 20 88 3c
       0.03642722 -0.10181965 0.033934217 0.016617052
000380 b1 65 97 3c c7 55 d3 3c 8a c3 60 3d d8 63 6b 3d
       0.018481107 0.025797738 0.05487398 0.057468265
000390 50 67 35 bc a4 77 5a 3c cb 80 6b bc a6 75 8d bd
       -0.011071995 0.013334189 -0.014373968 -0.06907205
0003a0 a1 f9 cb 3d ac 97 02 3e 20 3b 41 bd a7 5e 8e 3d
       0.09959722 0.1275317 -0.047175527 0.06951647
0003b0 93 7a 7f 3d 6c 9d 18 3d ad be 1d bd d4 d7 aa 3d
       0.062372755 0.037259504 -0.03851192 0.08341947
0003c0 51 16 3f bb 7e 75 ab 3d dc b3 7c 3c 5c 57 cf bd
       -0.0029157589 0.08372019 0.015423741 -0.10124084
0003d0 b3 78 c0 bc fe 81 bd 3d b0 db 7b bc 6d ec ee bd
       -0.023495054 0.0925331 -0.015372202 -0.116661884
0003e0 8b fc 57 3d e4 75 08 3e 76 eb 02 bc 2c ee 9b 3d
       0.052731078 0.13326222 -0.007990709 0.07613787
0003f0 b4 21 19 bd b5 94 10 bd a2 eb 15 bc c9 a2 96 3c
       -0.037385657 -0.035298068 -0.0091504175 0.018388169
