outputs/tags/2023-03-11-15-54-55/trained_model/best_weight.pt (torch, 842999 bytes, 8 tensors)

weight f4 [32, 1, 4, 4]
-0.17462435 -0.3043125 -0.14035287 0.029759582 -0.17143632 -0.20592754 -0.20598315 -0.11426765
0.28780535 0.19608603 -0.17708372 0.15135545 -0.7863859 -0.12499301 -0.39290813 0.15564704
0.3613848 0.025026595 -0.7104306 0.28717256 0.116094254 -0.19286837 0.22857699 0.37124884
0.0021938009 -0.3410252 -0.31373802 -0.57439923 -0.10204303 -0.5236388 -0.40565854 -0.19920258
-0.08268386 0.0026089842 -0.3190842 -0.47541228 -0.035985243 0.015929611 -0.42810974 -0.43732125
0.05457972 0.031158658 -0.1630335 -0.27895844 0.058706474 0.12653069 0.07213957 -0.2603759
-0.0065088295 -0.12085871 0.109165184 -0.04134383 -0.00750226 0.18982649 0.20290762 0.028588952
0.05432323 0.12822582 0.5816624 0.07172199 -0.08357593 0.38724068 -2.0345545 0.21846291
0.009061173 -0.042617567 1.5092758 -0.09803555 0.055561654 -0.061609883 -1.695983 -0.045915917
-0.054298174 -0.104461186 -0.09540707 -0.08790095 -0.045895003 -0.046149068 -0.06609479 -0.07446678
-0.008715754 -0.7188355 -0.78042763 0.06138046 -0.11650455 -0.027314702 -0.46800593 0.10544655
-0.13154462 -0.080921985 0.45647243 -0.058522075 0.07776459 0.0116630625 -0.6613175 -0.061409794
0.028722405 -0.0823027 0.042564496 -0.16679193 0.0998833 -0.00061855017 0.1567639 0.10561403
0.26709625 0.16472457 -0.03252827 -1.0882457 -0.016343702 -0.025500586 0.0058029685 -0.01199983
-0.5567531 -0.5516763 0.13565305 0.03741215 0.02368898 -0.25413164 0.77308613 -0.122698896
-0.053475317 -0.78557616 -0.5668117 -0.1424667 -0.005644062 -0.23792262 -0.5355517 -0.06898679
-0.553246 -0.876296 0.17650367 -0.084176935 -0.70402163 -0.86794865 0.25679892 0.05149488
-0.86978656 -0.913113 0.14843434 0.12074073 -0.2323866 -0.95960546 0.23815843 0.02335267
-0.07314654 -1.0013344 0.15573758 -0.051481575 -0.17823823 0.07020897 -0.027419401 0.09890714
0.040547118 -0.06818443 -0.106270865 0.57729405 -0.16653585 -0.20491175 -0.10011364 -0.90985376
-0.089035705 -0.30902255 -0.3110033 -0.100565605 -0.1486038 -0.10629862 -0.094273776 -0.21630913
0.013373093 0.15437044 0.11152423 -0.007452772 0.12549329 0.26804334 0.36262935 0.23366468
0.03380423 -0.9363514 -0.9651341 0.036748737 0.10302682 -0.30647603 -0.96598274 0.13421796
0.22051871 -0.64337355 -0.62317693 -0.009956971 0.17670293 -0.21240373 -0.2987333 0.18085012
-0.020964617 1.04754 -0.015420566 -0.05779586 -0.033463012 -1.0347883 -0.05523919 0.3781672
-0.09382871 -0.054958183 0.0146836 -0.46410277 -0.07611961 -0.02388264 -0.05543692 -0.016275484
0.100412235 0.2330602 0.025802407 0.0042007794 0.98015976 0.47283277 -0.019886145 -0.0075151855
-1.1237307 -0.76628196 -0.045294717 -0.03750885 -0.042634357 -0.008868009 -0.039893735 -0.03563884
0.2937128 0.38983324 0.16450225 0.0527437 -0.21702944 -0.1456341 -0.43581784 -0.8467518
-0.14852001 -0.24039398 -0.32632348 -0.097075894 -0.01726223 -0.14742453 0.016109496 0.049130525
0.2029124 -0.67119145 -0.37541667 -0.26983976 0.3422131 0.1920511 -0.35127804 -0.21171004
0.05041272 -0.40942308 -0.25958627 0.027159946 -0.45532012 0.050374083 -0.34586522 -0.32815394
00000000: bad0 32be d9ce 9bbe aab8 0fbe 5eca f33c
00000010: 018d 2fbe abde 52be 3fed 52be 2805 eabd
00000020: 395b 933e c7ca 483e 6f55 35be ecfc 1a3e
00000030: 9650 49bf 56fc ffbd 412b c9be f061 1f3e
00000040: 6e07 b93e 9304 cd3c c8de 35bf 4808 933e
00000050: d3c2 ed3d 497f 45be 1610 6a3e 5414 be3e
00000060: dfc5 0f3b db9a aebe 45a2 a0be d40b 13bf
00000070: f0fb d0bd 310d 06bf 7ab2 cfbe c3fb 4bbe
00000080: 2856 a9bd 7efb 2a3b 015f a3be 3d69 f3be
00000090: 4365 13bd d17e 823c 3331 dbbe 92e8 dfbe
000000a0: fc8e 5f3d 7140 ff3c 41f2 26be a4d3 8ebe
000000b0: 3376 703d 4391 013e e9bd 933d fd4f 85be
000000c0: 0548 d5bb c584 f7bd ff91 df3d 2658 29bd
000000d0: 85d5 f5bb e061 423e 04c7 4f3e 6133 ea3c
000000e0: 0982 5e3d a14d 033e d4e7 143f fbe2 923d
000000f0: db29 abbd 6944 c63e 2436 02c0 beb4 5f3e
00000100: 5075 143c c28f 2ebd f32f c13f ddc6 c8bd
00000110: 9e94 633d a55a 7cbd f915 d9bf 5412 3cbd
00000120: c367 5ebd bfef d5bd c864 c3bd 6a05 b4bd
00000130: 66fc 3bbd ce06 3dbd b55c 87bd 0a82 98bd
00000140: 86cc 0ebc 9a05 38bf 1bca 47bf 146a 7b3d
00000150: f099 eebd 15c3 dfbc 799e efbe 5cf4 d73d
00000160: a2b3 06be 6dba a5bd c1b6 e93e d8b4 6fbd
00000170: 0b43 9f3d 6e16 3f3c 1b4c 29bf d688 7bbd
00000180: 404b eb3c 518e a8bd 1c58 2e3d 81cb 2abe
00000190: 9e8f cc3d 3326 22ba b786 203e 2b4c d83d
000001a0: d7c0 883e 8fad 283e 5d3c 05bd a34b 8bbf
000001b0: 3ae3 85bc 9be6 d0bc d426 be3b ef9a 44bc
000001c0: 5f87 0ebf a83a 0dbf a2e8 0a3e 7c3d 193d
000001d0: 640f c23c 8b1d 82be f9e8 453f 8f49 fbbd
000001e0: ef08 5bbd 851b 49bf 921a 11bf cae2 11be
000001f0: d3f1 b8bb fda1 73be eb19 09bf f248 8dbd
00000200: 88a1 0dbf ef54 60bf 61bd 343e f564 acbd
00000210: c33a 34bf e231 5ebf 267b 833e 4cec 523d
00000220: 55aa 5ebf c6c1 69bf 2cff 173e ea46 f73d
00000230: c1f6 6dbe b4a8 75bf cedf 733e 194e bf3c
00000240: dacd 95bd ba2b 80bf ac79 1f3e 58de 52bd
00000250: 1584 36be b8c9 8f3d a79e e0bc d48f ca3d
00000260: bc14 263d 47a4 8bbd 8aa4 d9bd 8bc9 133f
00000270: 6088 2abe 63d4 51be 6108 cdbd 2dec 68bf
00000280: 5a58 b6bd 3438 9ebe d33b 9fbe 57f5 cdbd
00000290: 982b 18be 17b3 d9bd 9c12 c1bd 2480 5dbe
000002a0: d11a 5b3c 4913 1e3e d166 e43d 6236 f4bb
000002b0: 5081 003e fa3c 893e 8eaa b93e cb45 6f3e
000002c0: 4e76 0a3d bab4 6fbf 0713 77bf d885 163d
000002d0: baff d23d 6dea 9cbe a54a 77bf 6f70 093e
000002e0: a8cf 613e 21b4 24bf 8688 1fbf 9022 23bc
000002f0: 9df1 343e 5d80 59be 92f3 98be c630 393e
00000300: fdbd abbc ca15 863f 8ba6 7cbc 5abb 6cbd
00000310: 8310 09bd f173 84bf 7d42 62bd 229f c13e
00000320: 4429 c0bd d51b 61bd 7b93 703c e19e edbe
00000330: 99e4 9bbd 87a5 c3bc d311 63bd 2a54 85bc
00000340: eea4 cd3d 55a7 6e3e 925f d33c b1a6 893b
00000350: c0eb 7a3f 2317 f23e 45e8 a2bc f241 f6bb
00000360: 68d6 8fbf 0e2b 44bf f486 39bd e1a2 19bd
00000370: 5da1 2ebd 204b 11bc 9d67 23bd 08fa 11bd
00000380: 8661 963e 3998 c73e 4773 283e c709 583d
00000390: f73c 5ebe 1b21 15be 8423 dfbe bac4 58bf
000003a0: a115 18be d729 76be df13 a7be bacf c6bd
000003b0: 8569 8dbc 75f6 16be 10f8 833c 173d 493d
000003c0: 45c8 4f3e 34d3 2bbf 9d36 c0be 7028 8abe
000003d0: 8e36 af3e 0ba9 443e b7da b3be 84ca 58be
000003e0: 917d 4e3d e79f d1be 7ee8 84be 897e de3c
000003f0: b81f e9be 0e55 4e3d 3f15 b1be cb03 a8be

weight f4 [32, 32, 5, 5]
0.6405796 -0.2570444 0.68468153 0.39901462 -0.0820796 0.5582444 -0.141481 0.45433939
0.113110885 0.19826733 0.6925245 0.016391704 0.4293799 0.19727235 0.34079188 -1.6205087
0.8027684 0.079533555 -0.05440988 -0.29368266 0.07256684 0.9017452 -0.000110730674 0.19241925
0.42468035 -0.2370746 0.103128426 -0.011688357 0.022431832 0.008511679 -0.3370831 -0.37874725
0.15271601 0.533923 0.18897603 0.031843092 -0.43789175 0.20495276 -0.2203816 0.67168427
0.061862264 -0.07134981 0.4894124 -0.27119663 -0.3286929 -0.80984396 -0.1202704 0.23418976
-0.5797442 0.10301368 -0.12836584 0.32585573 -0.0142076 0.5379428 -0.53537285 -0.42237267
-0.5600409 0.008172514 -0.17426643 -0.16685084 0.33642855 -0.012808925 0.066272184 0.115029536
0.20961286 -0.118845515 0.22227256 -0.115034975 -0.24178344 -0.23187399 0.14579687 -0.9236577
-0.25641567 -0.63292444 -0.0003166916 -0.0802136 -0.2873531 -0.31789795 -0.16572133 -0.30474466
-0.31406623 -0.17311506 -0.2472657 -0.26036376 -0.039446946 0.24112622 -0.060882926 -0.05981939
-0.043801304 0.1810451 -0.9746602 -0.31688198 -0.6101779 -0.5565642 -1.2045672 -0.96327037
-1.0899844 -1.0502902 -1.0143251 -1.7830753 0.4387349 -0.25409463 -0.25911552 -0.024013432
-0.556897 -0.88521105 -0.18371987 -0.34506774 0.035578426 -0.33955055 0.1545034 0.10350851
-0.27601156 0.31905425 -0.18856679 0.32547396 -0.32678548 0.6577711 0.52712125 0.6435796
-0.86110616 -0.70620525 -0.3170926 0.053287867 0.099453874 -0.6803949 0.4219622 0.33609682
-0.47549272 -0.1113659 -0.15203762 0.8033921 0.29828256 -0.22148019 0.18264574 -0.010185868
-0.08450581 0.012938285 0.10903366 -0.16978382 0.9361092 0.24109371 -0.065907344 -0.14569272
0.2864194 -0.42752346 -0.81713986 0.026999464 0.06245154 0.28648904 -0.0564256 -0.4827018
0.14170015 -0.14426628 0.36885408 -0.66416526 -0.5854913 -0.13743295 -0.2840131 -0.027939023
0.29281574 -0.045066256 -0.15767562 -0.25357354 -0.27133965 -0.038436692 -0.114846356 -0.11656706
-0.008437759 0.0032828911 -0.7749276 -0.28985718 -0.37965018 -0.74478185 -0.052493874 -0.57129174
-0.49300063 -0.37774545 -0.29850575 -0.4466551 -0.68914133 0.1026609 0.06358749 0.14377543
0.2132507 -0.14908375 0.005892722 0.15425713 -0.087139525 -0.19087873 1.2879127 0.0034535797
-0.16846491 0.16383319 -0.5011149 -0.77757645 -0.11023682 0.011035929 -0.10074391 -0.44662258
-0.38532597 -0.099127665 -0.083550945 0.19774786 -0.33038384 0.7125297 -0.38123998 -0.08671615
-0.18049455 0.055300854 -0.097422846 0.15012667 -0.28144908 0.059538644 0.3435581 0.2381343
-0.043515753 0.44409004 0.18790133 0.33415478 1.3402591 0.56074977 0.42623782 0.7239004
0.34188122 0.12565166 -0.15227704 0.12617627 0.06545218 0.017883202 0.5782749 0.3222076
0.40190285 -0.24812448 -0.53283024 0.56553817 -0.044354454 -0.5057896 0.29877466 0.056180216
-0.107135326 0.008550682 -0.36818564 -0.7944524 0.21633226 -0.5086985 -0.18493176 -0.26146206
0.15460156 0.35830963 -0.019957535 -0.108932704 0.014010185 -0.25279784 0.10869074 -0.741141
00000000: 06fd 233f 539b 83be 4a47 2f3f a54b cc3e
00000010: 5919 a8bd 1be9 0e3f 65e0 10be 2c9f e83e
00000020: aea6 e73d 9706 4b3e 4949 313f e547 863c
00000030: afd7 db3e c301 4a3e 467c ae3e d46c cfbf
00000040: 3b82 4d3f 7de2 a23d e5dc 5ebd 935d 96be
00000050: ec9d 943d c6d8 663f 1438 e8b8 8d09 453e
00000060: b46f d93e afc3 72be ff34 d33d 8680 3fbc
00000070: f6c2 b73c 9274 0b3c 2896 acbe 29eb c1be
00000080: 9661 1c3e 2daf 083f ef82 413e e76d 023d
00000090: 5933 e0be 23df 513e b7ab 61be 80f3 2b3f
000000a0: 4963 7d3d d91f 92bd 4394 fa3e 49da 8abe
000000b0: 704a a8be ef51 4fbf 5450 f6bd 71cf 6f3e
000000c0: 1e6a 14bf d6f8 d23d 5672 03be 90d6 a63e
000000d0: fec6 68bc 9fb6 093f 320e 09bf 3b41 d8be
000000e0: d75e 0fbf 02e6 053c e672 32be f2da 2abe
000000f0: 5d40 ac3e 86dc 51bc b6b9 873d 9b94 eb3d
00000100: c1a4 563e 4765 f3bd 6b9b 633e 7597 ebbd
00000110: 1496 77be 6070 6dbe c64b 153e d574 6cbf
00000120: ea48 83be 5607 22bf a109 a6b9 0747 a4bd
00000130: f21f 93be 85c3 a2be dab2 29be 7e07 9cbe
00000140: 4acd a0be 1345 31be 3833 7dbe 664e 85be
00000150: 1f93 21bd cbe9 763e 6060 79bd 2d05 75bd
00000160: ff68 33bd e363 393e 5583 79bf 5b3e a2be
00000170: 9e34 1cbf fe7a 0ebf 422f 9abf e398 76bf
00000180: 9c84 8bbf e96f 86bf 68d5 81bf d03b e4bf
00000190: dca1 e03e b118 82be caaa 84be d1b7 c4bc
000001a0: cd90 0ebf 319d 62bf 1021 3cbe b8ac b0be
000001b0: afba 113d 92d9 adbe 2436 1e3e 45fc d33d
000001c0: 6351 8dbe 145b a33e a717 41be 86a4 a63e
000001d0: 6d50 a7be b063 283f 6bf1 063f a2c1 243f
000001e0: 7471 5cbf dec9 34bf f659 a2be 6144 5a3d
000001f0: 79ae cb3d 5c2e 2ebf 6e0b d83e e214 ac3e
00000200: c873 f3be ce13 e4bd c0af 1bbe 1bab 4d3f
00000210: 7eb8 983e b4cb 62be 7c07 3b3e a0e2 26bc
00000220: 6211 adbd 1afb 533c 0a4d df3d cfdb 2dbe
00000230: daa4 6f3f 45e1 763e 6efa 86bd 7930 15be
00000240: 90a5 923e 5be4 dabe 1430 51bf fb2d dd3c
00000250: 30cd 7f3d b1ae 923e 881e 67bd b124 f7be
00000260: d819 113e 8aba 13be 71da bc3e bc06 2abf
00000270: c2e2 15bf 39bb 0cbe 2a6a 91be 61e0 e4bc
00000280: f2eb 953e 6597 38bd b875 21be 64d4 81be
00000290: 08ed 8abe cb6f 1dbd 9134 ebbd b6ba eebd
000002a0: 873e 0abc c625 573b a861 46bf 2968 94be
000002b0: 8261 c2be 06aa 3ebf d103 57bd 2d40 12bf
000002c0: 946a fcbe da67 c1be bfd5 98be faaf e4be
000002d0: 916b 30bf e13f d23d 283a 823d de39 133e
000002e0: 645e 5a3e 69a9 18be bc17 c13b 95f5 1d3e
000002f0: 3576 b2bd b775 43be 53da a43f 7455 623b
00000300: 1182 2cbe e3c3 273e 1149 00bf 400f 47bf
00000310: d8c3 e1bd 0bd0 343c d352 cebd b7ab e4be
00000320: 7249 c5be 7203 cbbd c21c abbd 6a7e 4a3e
00000330: 1228 a9be 5968 363f e331 c3be 3d98 b1bd
00000340: 90d3 38be 2683 623d a185 c7bd ceba 193e
00000350: 181a 90be cbde 733d d9e6 af3e 7ad9 733e
00000360: 933d 32bd c55f e33e 3569 403e 5616 ab3e
00000370: 9c8d ab3f 4c8d 0f3f d83b da3e 8951 393f
00000380: 0e0b af3e d4aa 003e 83ee 1bbe 5a34 013e
00000390: cb0b 863d cb7f 923c d309 143f 65f8 a43e
000003a0: 36c6 cd3e 5814 7ebe 9067 08bf 1cc7 103f
000003b0: 04ad 35bd 6d7b 01bf fef8 983e 3a1d 663d
000003c0: c469 dbbd 2918 0c3c d482 bcbe 3c61 4bbf
000003d0: 3486 5d3e 113a 02bf c05e 3dbe 5bde 85be
000003e0: df4f 1e3e 5c74 b73e fc7d a3bc 1c18 dfbd
000003f0: fa8a 653c b86e 81be 4099 de3d 6bbb 3dbf

weight f4 [64, 32, 5, 5]
0.11257576 -0.055755634 0.028866535 -0.21036617 0.07580952 0.064564675 0.19235477 -0.042577725
-0.19959025 0.123778544 -0.19250593 -0.014340524 -0.010555973 0.13020653 -0.029234681 -0.06190203
-0.14306661 -0.109807804 -0.12201202 -0.25379953 0.15050943 0.28165945 -0.09686251 0.1699945
0.04119792 -0.011365913 -0.027456928 -0.046199556 -0.119407766 -0.10610073 -0.16745895 -0.086495936
-0.17579083 -0.06854543 0.102957405 -0.017989412 0.011630297 -0.17969015 -0.135628 0.13440228
-0.09627044 0.07659365 -0.19678465 0.13432367 0.12593709 -0.11577879 -0.33865222 -0.30676162
0.08137402 0.0092624035 -0.19258663 0.14897119 0.116519615 -0.11888485 -0.15303403 -0.005196834
-0.06066009 0.04932791 -0.2713963 -0.47955436 0.089963496 -0.2206311 -0.028562283 -0.11303554
-0.2003862 -0.16212158 0.03801985 -0.043424144 0.022612518 -0.19486812 -0.006706276 -0.06802538
-0.13927573 -0.15956359 -0.29713598 -0.18853131 0.10935561 -0.17008354 -0.21361987 -0.11824436
-0.140091 -0.3001897 -0.1571596 -0.05969658 0.05193906 -0.14721416 0.22299182 -0.10782446
-0.07455998 0.12761442 -0.0027085599 0.07202779 0.4214481 0.023814406 -0.071365155 0.13989139
-0.16963847 0.18841544 -0.28984693 -0.20842396 -0.008768255 0.36769414 0.062100746 0.11052442
-0.12421329 -0.1684777 -0.0752183 0.19963606 0.08438949 0.13801658 -0.030717889 0.022969333
-0.08947443 -0.2772759 0.008664203 0.0011155459 0.037586782 0.07621534 0.1264563 -0.35701966
-0.11955115 0.012643603 0.18079965 -0.092112385 0.15670957 0.053679217 0.059365164 0.040297266
-0.03368736 0.1042595 0.0949667 0.0023972841 0.01666545 0.17711325 -0.0048900805 -0.1463233
-0.043315977 -0.196382 -0.14967775 -0.0143822655 0.010384613 -0.024693057 -0.11101808 -0.09334463
-0.03147822 0.018631266 0.20580143 -0.34969124 -0.057471085 -0.21615629 0.20684366 0.06845216
0.13402338 0.060196277 0.09512603 0.32277635 0.010840781 0.124568805 0.0070066606 -0.051705215
-0.23820868 -0.02932141 0.052852165 0.0058345567 -0.30719554 -0.22994922 -0.14252844 0.27045506
0.015794456 -0.1375564 -0.05677734 -0.26779702 -0.07427491 -0.015912343 0.05485305 -0.06332005
0.0219507 -0.14580168 -0.061883546 0.003066718 0.07943146 0.12230197 0.018578947 -0.21147646
0.20913173 -0.05905737 -0.14926726 0.09444468 -0.13817026 -0.06444181 0.21901102 0.040109776
-0.17092739 -0.27011913 -0.10754066 -0.07846196 -0.10898449 -0.03975683 -0.037275355 -0.3262898
0.009930893 -0.22733042 -0.2505006 0.08836882 -0.0053483816 0.0029571815 -0.09368657 -0.082734935
-0.046999607 0.025663016 0.025536487 -0.16345878 0.046522148 -0.1790172 -0.08234709 -0.17638656
-0.31432816 0.13889639 -0.3315171 -0.43918106 0.13189374 -0.07096029 -0.023676392 -0.034940675
-0.1773049 0.124901466 -0.23776962 -0.047205232 0.050573822 0.19074342 0.18008618 -0.19754171
0.028222108 -0.063439764 0.057743706 0.021349637 -0.28142935 0.113786355 -0.007869453 -0.20587495
-0.05561344 -0.061946582 0.035564307 -0.30572864 0.0064803255 -0.047291566 -0.07899193 0.124245465
-0.07274084 0.0020157201 -0.03658971 -0.083153084 -0.12301064 -0.22549242 -0.41574654 -0.082269445
00000000: 1f8e e63d 0560 64bd 8379 ec3c 3b6a 57be
00000010: 0642 9b3d 7c3a 843d a6f8 443e fb65 2ebd
00000020: 6361 4cbe 9b7f fd3d 4620 45be 84f4 6abc
00000030: f6f2 2cbc dc54 053e 927d efbc fc8c 7dbd
00000040: 0e80 12be eae2 e0bd 70e1 f9bd 03f2 81be
00000050: 251f 1a3e ab35 903e da5f c6bd 0a13 2e3e
00000060: 26bf 283d 1838 3abc 5aed e0bc bf3b 3dbd
00000070: 0f8c f4bd 574b d9bd 5c7a 2bbe c824 b1bd
00000080: 8302 34be 8c61 8cbd 55db d23d 885e 93bc
00000090: 008d 3e3c b200 38be 11e2 0abe c0a0 093e
000000a0: 7029 c5bd 22dd 9c3d ea81 49be 258c 093e
000000b0: a7f5 003e 6e1d edbd d363 adbe dc0f 9dbe
000000c0: 6ca7 a63d 56c1 173c 6e35 45be e78b 183e
000000d0: d6a1 ee3d e679 f3bd f4b4 1cbe 344a aabb
000000e0: b776 78bd 100c 4a3d 75f4 8abe 2688 f5be
000000f0: c83e b83d 1eed 61be 73fb e9bc 2d7f e7bd
00000100: 0a32 4dbe 3303 26be b4ba 1b3d 84dd 31bd
00000110: e33d b93c 828b 47be 52c0 dbbb e450 8bbd
00000120: 4c9e 0ebe a364 23be 3522 98be 5a0e 41be
00000130: d6f5 df3d 612a 2ebe 2bbf 5abe 192a f2bd
00000140: 0474 0fbe 77b2 99be 72ee 20be 6784 74bd
00000150: 0dbe 543d 4fbf 16be f857 643e 12d3 dcbd
00000160: e7b2 98bd 5bad 023e 1882 31bb 4e83 933d
00000170: 0cc8 d73e 6e16 c33c e527 92bd b03f 0f3e
00000180: b5b5 2dbe faef 403e d166 94be 176d 55be
00000190: baa8 0fbc 6842 bc3e 5a5d 7e3d a15a e23d
000001a0: 8a63 febd 6b85 2cbe 0d0c 9abd 656d 4c3e
000001b0: 66d4 ac3d 3854 0d3e 15a4 fbbc 2f2a bc3c
000001c0: 5f3e b7bd 1bf7 8dbe 4df4 0d3c 8237 923a
000001d0: 99f4 193d ca16 9c3d c37d 013e 48cb b6be
000001e0: 3cd7 f4bd 1d27 4f3c 8b23 393e 6ba5 bcbd
000001f0: 7978 203e bdde 5b3d e328 733d bf0e 253d
00000200: c2fb 09bd 0186 d53d e77d c23d c11b 1d3b
00000210: fb85 883c 2d5d 353e f83c a0bb c6d5 15be
00000220: 186c 31bd 5d18 49be 2045 19be 98a3 6bbc
00000230: 3924 2a3c 1849 cabc 725d e3bd 782b bfbd
00000240: 4eef 00bd 99a0 983c 9cbd 523e bb0a b3be
00000250: cd66 6bbd 1358 5dbe d3ce 533e a530 8c3d
00000260: 6d3d 093e 5f90 763d 70d1 c23d f142 a53e
00000270: 889d 313c ee1d ff3d 2198 e53b d9c8 53bd
00000280: faec 73be 7433 f0bc 837b 583d cf2f bf3b
00000290: bc48 9dbe cf77 6bbe faf2 11be 1679 8a3e
000002a0: 6063 813c 96db 0cbe 5b8f 68bd b11c 89be
000002b0: 721d 98bd 9a5a 82bc 97ad 603d f1ad 81bd
000002c0: f4d1 b33c 094d 15be 9a79 7dbd fefa 483b
000002d0: f6ac a23d 7579 fa3d e032 983c 498d 58be
000002e0: a126 563e 24e6 71bd 84d9 18be 366c c13d
000002f0: 817c 0dbe 11fa 83bd 6d44 603e 264a 243d
00000300: 9707 2fbe 0e4d 8abe 473e dcbd aab0 a0bd
00000310: 4333 dfbd 0fd8 22bd 0bae 18bd 750f a7be
00000320: 2fb5 223c 4ec9 68be 9d41 80be b6fa b43d
00000330: 7a41 afbb 46cd 413b bfde bfbd ef70 a9bd
00000340: a982 40bd 3f3b d23c e531 d13c bd61 27be
00000350: 028e 3e3d 4950 37be 97a5 a8bd ae9e 34be
00000360: 9fef a0be db3a 0e3e 9cbc a9be 57dc e0be
00000370: 270f 073e a153 91bd fef4 c1bc f41d 0fbd
00000380: 6a8f 35be 57cc ff3d e179 73be 465a 41bd
00000390: 7f26 4f3d 3e52 433e 8368 383e 6048 4abe
000003a0: 0d32 e73c b5ec 81bd aa84 6c3d 6fe5 ae3c
000003b0: 8217 90be d208 e93d e1ee 00bc e2d0 52be
000003c0: ebca 63bd b3bb 7dbd e1ab 113d 7788 9cbe
000003d0: e958 d43b cdb4 41bd 85c6 a1bd 6874 fe3d
000003e0: 26f9 94bd 2c1a 043b 17df 15bd 2a4c aabd
000003f0: 01ed fbbd 7ce7 66be bbdc d4be e27c a8bd

weight f4 [256, 256]
0.08965986 -0.1508972 -0.084945425 0.18207616 -0.3607937 0.12853183 -0.2847046 -0.34649834
-0.13347784 -0.37639335 0.007071146 0.2106475 0.31443644 -0.38984534 -0.50976413 0.22049789
0.31691054 -0.4520758 0.18050739 0.06729626 0.25218818 -0.15050027 0.42159295 -0.07932373
0.04640571 0.015941378 -0.07606681 0.03330715 -0.19890988 -0.36451843 -0.12343902 0.0070477207
0.13180372 0.26118213 0.10924969 0.13516223 -0.02087619 0.19216785 0.06580795 0.15395047
-0.07142799 -0.11411316 0.0073888665 -0.0021597983 -0.13400538 -0.0024247083 -0.06371547 0.03759278
0.08393554 0.10966567 -0.04608411 -0.03436624 0.29834473 0.19455251 -0.4456026 -0.078047216
0.3767831 -0.14053643 0.097142756 -0.009510851 -0.112188645 0.23157343 -0.2567332 -0.14125125
0.100305244 -0.38214174 -0.35647246 0.22128876 0.36602962 0.1634855 0.061174933 0.08187781
-0.9226947 -0.34091032 0.013470682 -0.034550134 0.37833366 -0.28839052 -0.16328141 0.032012332
-0.8095606 0.7583037 -0.10429776 -0.016134817 0.0007106109 -0.106392935 -0.012768475 0.006986196
0.028852906 0.26179084 0.019429518 0.25524583 0.25108966 -0.22476204 0.124879785 -0.029997682
0.48807344 -0.7420828 0.0572281 0.017915223 0.1084441 0.0183101 0.044209566 -0.0115549695
0.17274864 0.37310416 0.16577803 0.20500855 0.862602 -0.52263325 -0.25615177 -0.07177371
-0.40742114 -0.08977637 -0.21467361 -0.05947497 -0.032729547 -0.07526062 0.024476115 -0.0122303525
-0.05971991 -0.85386044 0.17714475 -0.10487008 0.11127846 -0.007993641 -0.06742896 0.098896265
-0.015731689 0.15070225 -0.14171638 -0.23672733 -0.18017974 -0.21637085 -0.13095628 -0.073071666
-0.34867126 -0.047992535 -0.40410462 -0.19071016 -0.26059338 0.13083176 0.24768636 0.10259243
0.1631208 -0.14701007 -0.004796087 -0.034378637 0.032594353 -0.051145438 0.19233288 0.23821983
-0.2570188 -0.015291973 0.23058884 0.117847934 0.025188982 0.07276048 -0.01909697 0.079646796
0.4312641 0.38365197 0.19072777 -0.0635517 0.17469038 -0.113635704 0.062008716 0.11649544
-0.11712613 0.15798157 0.16854376 0.09637935 0.2013977 0.23326704 0.32552755 0.06309876
-0.08254991 -0.116848424 -0.055591814 0.09543668 -0.15165314 0.058984045 0.09412875 0.07883331
0.10257252 -0.25885895 0.063721016 -0.147779 -0.3194693 -0.142552 0.046566747 0.13703825
0.44301638 -0.12931862 0.21509302 -0.36643693 -0.79953253 -0.09368853 -0.22016564 0.06906509
0.37786242 -0.3292442 0.39588317 -0.18246217 -0.42830363 0.070004724 0.2776176 0.26588586
0.5992803 -0.5464917 0.24306484 -0.07020975 -0.24529667 -0.023188937 -0.09396385 0.035789073
-0.08928261 -0.14007401 0.050438333 -0.06741194 -0.3668573 0.3819597 -0.4152073 0.12964779
0.08717361 -0.62114114 -0.42756733 0.2610482 0.16817339 0.034775335 -0.0031777415 0.056440774
0.31880212 -0.0023873283 -0.02799619 -0.00072912103 0.0480505 0.100524984 0.104549296 -0.22428668
-0.32914785 -0.01921677 -0.5214319 0.044667136 0.3016606 0.015951017 0.24061969 -0.040336683
-0.031378403 0.055437364 -0.018736787 -0.0053314012 -0.227885 -0.23459198 -0.27495846 -0.38964647
00000000: 979f b73d cc84 1abe def7 adbd 2c72 3a3e
00000010: f4b9 b8be d99d 033e cdc4 91be 3b68 b1be
00000020: 6aae 08be a1b6 c0be 12b5 e73b fab3 573e
00000030: d0fd a03e cf99 c7be e77f 02bf 33ca 613e
00000040: 1942 a23e 7b76 e7be eed6 383e 9fd2 893d
00000050: cf1e 813e be1c 1abe 08db d73e 7b74 a2bd
00000060: ea13 3e3d 7e97 823c eac8 9bbd 146d 083d
00000070: 08af 4bbe 29a2 babe 99cd fcbd 91f0 e63b
00000080: 8ef7 063e aab9 853e 4dbe df3d f867 0a3e
00000090: 8b04 abbc a6c7 443e 52c6 863d 31a5 1d3e
000000a0: d748 92bd 29b4 e9bd 4e1e f23b 678b 0dbb
000000b0: b538 09be dbe7 1ebb 427d 82bd e3fa 193d
000000c0: 65e6 ab3d 6598 e03d b1c2 3cbd 9dc3 0cbd
000000d0: a4c0 983e c638 473e 0626 e4be 38d7 9fbd
000000e0: b7e9 c03e c8e8 0fbe c8f2 c63d 67d3 1bbc
000000f0: 29c3 e5bd 9621 6d3e 8972 83be 2ba4 10be
00000100: d66c cd3d 15a8 c3be 8f83 b6be 8599 623e
00000110: 3c68 bb3e be68 273e 9192 7a3d 8eaf a73d
00000120: b835 6cbf cc8b aebe 23b4 5c3c 7184 0dbd
00000130: f3b4 c13e eca7 93be 3e33 27be 5d1f 033d
00000140: 5d3f 4fbf 3120 423f 109a d5bd 2a2d 84bc
00000150: 4a48 3a3a 8ae4 d9bd de32 51bc 76ec e43b
00000160: ee5c ec3c 7309 863e a72a 9f3c 95af 823e
00000170: d38e 803e 0528 66be f9c0 ff3d b3bd f5bc
00000180: c3e4 f93e 23f9 3dbf 0368 6a3d f2c2 923c
00000190: f117 de3d 10ff 953c 1715 353d 0e51 3dbc
000001a0: 05e5 303e 8207 bf3e b7c1 293e c3ed 513e
000001b0: 7cd3 5c3f 4bcb 05bf 5326 83be 18fe 92bd
000001c0: 8199 d0be acdc b7bd 66d3 5bbe 079c 73bd
000001d0: 6b0f 06bd 3d22 9abd 2282 c83c d161 48bc
000001e0: dd9c 74bd 9996 5abf 6f65 353e 20c6 d6bd
000001f0: f6e5 e33d c3f7 02bc 3218 8abd 208a ca3d
00000200: bedf 80bc b151 1a3e 191e 11be a668 72be
00000210: 0a81 38be 5290 5dbe 6719 06be 99a6 95bd
00000220: 0a85 b2be d293 44bd cde6 cebe 8649 43be
00000230: 7f6c 85be c3f8 053e 7ea1 7d3e fb1b d23d
00000240: 2409 273e cf89 16be 7e28 9dbb 9dd0 0cbd
00000250: a881 053d e17d 51bd e9f2 443e e6ef 733e
00000260: f897 83be 2f8b 7abc 7b1f 6c3e 425a f13d
00000270: 2059 ce3c 7203 953d 4071 9cbc dc1d a33d
00000280: a6ce dc3e 086e c43e 244e 433e 6527 82bd
00000290: 09e2 323e d6b9 e8bd dafc 7d3d 2995 ee3d
000002a0: d3df efbd ecc5 213e bc96 2c3e 8962 c53d
000002b0: 333b 4e3e 8edd 6e3e 8cab a63e ec39 813d
000002c0: ed0f a9bd 3a4e efbd 3eb4 63bd 4e74 c33d
000002d0: f64a 1bbe 4199 713d 93c6 c03d 5c73 a13d
000002e0: 8b11 d23d 2989 84be 2a80 823d 6153 17be
000002f0: 7b91 a3be 27f9 11be c6bc 3e3d c153 0c3e
00000300: 0bd3 e23e 1a6c 04be 5841 5c3e 9f9d bbbe
00000310: 2aae 4cbf c6df bfbd 1a73 61be ff71 8d3d
00000320: 2f77 c13e b292 a8be 33b1 ca3e 5dd7 3abe
00000330: 9d4a dbbe a35e 8f3d e523 8e3e 3122 883e
00000340: 6f6a 193f e1e6 0bbf fde5 783e 21ca 8fbd
00000350: 0d2f 7bbe baf6 bdbc 1e70 c0bd 9097 123d
00000360: cdd9 b6bd 906f 0fbe 6d98 4e3d 450f 8abd
00000370: b8d4 bbbe 3990 c33e 0d96 d4be 64c2 043e
00000380: 1488 b23d 1b03 1fbf 1bea dabe 1ca8 853e
00000390: a535 2c3e 9570 0e3d a841 50bb 712e 673d
000003a0: 083a a33e b974 1cbb 4458 e5bc 7c22 3fba
000003b0: 9ad0 443d 0be0 cd3d f11d d63d 68ab 65be
000003c0: 1186 a8be 7d6c 9dbc 907c 05bf e3f4 363d
000003d0: 4273 9a3e b5ab 823c 0265 763e 1438 25bd
000003e0: a486 00bd 4a12 633d e47d 99bc 09b3 aebb
000003f0: af5a 69be e138 70be 5bc7 8cbe be7f c7be

bias f4 [256]
0.007575948 0.050211065 0.019585948 -0.01113979 0.046555527 -0.04645969 -0.106418185 -0.040040724
0.02716719 -0.05334399 0.061432585 -0.058622275 -0.051152036 0.07168067 -0.11952024 -0.009848478
0.014448682 0.034928937 0.009531245 0.00084996567 -0.08852598 -0.06316725 -0.009450654 -0.0036372382
-0.084611855 0.08855773 -0.037023902 0.06045828 -0.034303714 -0.059005246 0.034183063 0.025276218
-0.09381681 0.0006177392 0.024269775 -0.018512417 0.03542437 -0.021551495 -0.0002547021 -0.080817126
-0.0067270882 0.0723738 0.1225809 -0.08619185 0.0022494872 0.11852023 0.08575914 0.032125268
-0.0888315 -0.0029982445 0.0143099185 -0.18478703 -0.005086956 -0.020942934 0.0283402 0.01201692
0.046926726 -0.04579366 -0.018886432 0.065554254 -0.017197542 -0.004211614 0.014185933 -0.11109878
-0.024915846 -0.017507097 0.057319492 0.009016346 0.080078274 -0.051347308 -0.011349702 -0.037170064
0.044707738 0.009254379 0.1124262 0.05317399 0.02917826 0.014084604 0.07540095 -0.06486956
-0.03300774 -0.027316395 -0.0072015724 0.08476201 -0.07330037 0.0227398 -0.00455234 -0.13692853
0.05687762 -0.029782131 -0.05493166 0.04402759 0.05999644 0.002104392 -0.023818474 -0.0021917447
0.027300792 0.03218178 -0.033886086 0.058759343 -0.04101455 -0.21305177 -0.017265692 0.108938344
-0.046197355 0.030603029 -0.010889904 -0.057367228 0.001980136 -0.035631604 -0.019470727 0.119445056
-0.20570281 0.018673545 0.06140431 -0.0120854685 0.010125954 -0.0619006 -0.05120393 0.026496444
0.050580807 0.120669276 0.20911212 0.06411409 0.03973013 -0.00648382 -0.017127786 0.08394161
-0.01837709 0.010212848 -0.022569127 0.020548569 -0.01627671 0.029174948 0.061211664 0.007096586
0.042761352 -0.0029857385 0.12584724 -0.13098624 -0.010634181 0.040477052 -0.012791525 0.037361626
0.24558501 -0.0037797173 -0.12957859 -0.034569494 0.2526175 0.18795921 0.018646048 -0.09783754
0.003747208 -0.07202139 -0.12780002 0.030016243 0.048006687 0.0793968 0.090541594 0.06949234
0.05790549 0.017326545 -0.08465251 0.024460943 0.07911242 -0.009991712 0.08472067 0.06388555
0.014046818 -0.031844765 0.010500401 -0.0594754 0.0014581649 -0.10883644 -0.07256955 0.011020748
0.09011939 -0.08865237 -0.0393146 0.016503897 0.04803494 -0.023540918 -0.0004758978 -0.02291738
0.06981543 0.00096419285 -0.12647313 -0.029591616 -0.035058547 -0.10755063 0.00841243 0.030109914
0.009186918 -0.014122222 0.01720256 0.012081039 0.0314007 0.20646271 0.12001037 -0.004601962
0.04594649 -0.033919536 0.03892735 0.0021778203 -0.09745431 -0.038587883 -0.09799394 0.021535262
0.0029889378 -0.014689104 0.09488978 -0.05520309 -0.024610085 0.038951322 0.07644317 -0.026836656
-0.009238553 -0.07000608 -0.053258624 -0.0546246 0.031400267 0.027427299 0.047693174 0.018956294
-0.034039132 0.007963302 -0.02190731 0.105303675 0.0151096005 0.036063526 -0.007753864 -0.04752195
-0.06105415 0.043354426 0.01808245 -0.06130156 -0.0070820004 0.0694526 0.06637124 0.011872777
0.065123156 -0.0999901 -0.012005889 -0.028175902 0.054802794 -0.1225284 -0.037879776 -0.022593826
-0.00081334595 0.10832741 0.016474975 -0.14078882 -0.025737038 0.031083768 0.00013349434 -0.2072613
00000000: a83f f83b 1eaa 4d3d b672 a03c aa83 36bc
00000010: 02b1 3e3d 844c 3ebd c7f1 d9bd be01 24bd
00000020: ba8d de3c 3a7f 5abd bca0 7b3d e91d 70bd
00000030: cc84 51bd 51cd 923d 07c7 f4bd 835b 21bc
00000040: 2aba 6c3c a511 0f3d f028 1c3c 3bd0 5e3a
00000050: 1c4d b5bd d55d 81bd ead6 1abc bb5e 6ebb
00000060: fb48 adbd c15d b53d 60a6 17bd 1aa3 773d
00000070: 0d82 0cbd 7caf 71bd 8a03 0c3d 1210 cf3c
00000080: 0723 c0bd c7ef 213a 68d1 c63c 5aa7 97bc
00000090: 2519 113d c38c b0bc 8a89 85b9 7383 a5bd
000000a0: e86e dcbb b738 943d b20b fb3d 5a85 b0bd
000000b0: 226c 133b bcba f23d 7da2 af3d c995 033d
000000c0: 4aed b5bd 327e 44bb 2674 6a3c d038 3dbe
000000d0: 7bb0 a6bb 8490 abbc b529 e83c 9ee2 443c
000000e0: 3d36 403d 2292 3bbd b8b7 9abc 4f41 863d
000000f0: dce1 8cbc 9401 8abb 1e6c 683c c287 e3bd
00000100: 511c ccbc 0b6b 8fbc d8c7 6a3d 4cb9 133c
00000110: 1400 a43d 8e51 52bd 1af4 39bc a33f 18bd
00000120: 761f 373d ae9f 173c b53f e63d f8cc 593d
00000130: 3f07 ef3c 1cc3 663c d06b 9a3d 55da 84bd
00000140: 2033 07bd a2c6 dfbc 2bfb ebbb b497 ad3d
00000150: 811e 96bd d148 ba3c cc2b 95bb fe36 0cbe
00000160: 82f8 683d a8f9 f3bc 0500 61bd 4656 343d
00000170: d4be 753d d7e9 093b f61e c3bc 60a3 0fbb
00000180: e9a5 df3c 0bd1 033d 23cc 0abd a3ad 703d
00000190: dffe 27bd 3e2a 5abe c870 8dbc 111b df3d
000001a0: 7039 3dbd 34b3 fa3c 916b 32bc e6f9 6abd
000001b0: 2bc5 013b 72f2 11bd 1381 9fbc 9c9f f43d
000001c0: c2a3 52be 43f9 983c 1683 7b3d 2102 46bc
000001d0: 54e7 253c 7c8b 7dbd 36bb 51bd 120f d93c
000001e0: d22d 4f3d 7421 f73d 7d21 563e 3f4e 833d
000001f0: 10bc 223d 3976 d4bb 924f 8cbc 94e9 ab3d
00000200: 8d8b 96bc ca53 273c e4e2 b8bc 7955 a83c
00000210: bc56 85bc 4d00 ef3c 15b9 7a3d 7a8a e83b
00000220: 8726 2f3d 61ac 43bb 19de 003e 4221 06be
00000230: fd3a 2ebc 44cb 253d 8b93 51bc 8108 193d
00000240: a37a 7b3e 22b5 77bb 40b0 04be be98 0dbd
00000250: 1557 813e 6178 403e 99bf 983c 0c5f c8bd
00000260: b893 753b f37f 93bd 02de 02be a0e4 f53c
00000270: a9a2 443d ca9a a23d df6d b93d 0052 8e3d
00000280: 4f2e 6d3d 66f0 8d3c 4c5e adbd 5162 c83c
00000290: b105 a23d 47b4 23bc 0882 ad3d 6dd6 823d
000002a0: a024 663c a86f 02bd e009 2c3c 7a9c 73bd
000002b0: e51f bf3a a4e5 debd 589f 94bd 5e90 343c
000002c0: 8490 b83d 608f b5bd 5908 21bd 2e33 873c
000002d0: 49c0 443d e2d8 c0bc ec81 f9b9 3bbd bbbc
000002e0: 64fb 8e3d e3c1 7c3a 2c82 01be 1e6a f2bc
000002f0: 8d99 0fbd 8143 dcbd 4ad4 093c 11a9 f63c
00000300: ba84 163c e460 67bc 62ec 8c3c 8def 453c
00000310: 059e 003d f66a 533e ffc7 f53d 0ecc 96bb
00000320: 6332 3c3d 36ef 0abd 4972 1f3d c3b9 0e3b
00000330: 2096 c7bd 540e 1ebd 0cb1 c8bd b86a b03c
00000340: 0ee2 433b 91aa 70bc 9355 c23d a31c 62bd
00000350: 179b c9bc 6c8b 1f3d 3d8e 9c3d 8cd8 dbbc
00000360: 4d5d 17bc 595f 8fbd b725 5abd 0bbe 5fbd
00000370: 919d 003d 37af e03c eb59 433d 3b4a 9b3c
00000380: 9e6c 0bbd 8278 023c f576 b3bc 74a9 d73d
00000390: 428e 773c 59b7 133d 2014 febb 60a6 42bd
000003a0: eb13 7abd 6994 313d a521 943c 5817 7bbd
000003b0: 2010 e8bb 2a3d 8e3d a5ed 873d 0986 423c
000003c0: 4a5f 853d 9cc7 ccbd 59b4 44bc 26d1 e6bc
000003d0: e578 603d 2bf0 fabd d327 1bbd b016 b9bc
000003e0: b936 55ba c3da dd3d 87f6 863c f22a 10be
000003f0: 7bd6 d2bc 63a3 fe3c 9dfa 0b39 4e3c 54be

weight f4 [256, 256]
-0.007960754 -0.0075515457 0.014825483 -0.022497794 -0.022066355 -0.027914127 0.00027643962 0.030777423
-0.020737398 -0.012243835 0.02632231 0.0077028545 -0.038976155 -0.020497136 0.024292355 0.0012455778
-0.037486266 -0.011134523 0.0074276896 -0.005906224 0.013696991 0.009358486 -0.012274695 0.027076093
-0.056948505 -0.0050394367 0.0037780097 0.024917811 -0.06921033 -0.04216117 -0.027715417 0.031188428
0.045103237 -0.02734096 0.017395318 0.034481745 -0.024945075 -0.022002965 0.01938052 -0.013531458
0.045640774 -0.05772137 -0.028935561 -0.038535155 -0.014645867 0.036741253 -0.020448709 0.04872138
-0.0061337724 0.009139534 -0.001302268 -0.04018773 -0.0073074754 -0.020686766 -0.06687417 0.015271926
0.028265432 0.019139389 0.01825598 0.041877735 -0.008956448 -0.037774835 -0.021092162 -0.032889124
-0.047604393 0.0040393593 0.016870292 0.0036180224 -0.027880283 0.021967588 -0.013613719 -0.031211853
-0.03816655 -0.01350858 -0.022806402 0.027969265 -0.01700676 -0.004751756 0.0481789 0.052538063
-0.0333905 -0.013341736 0.04926627 -0.020198762 -0.044721674 -0.033129953 -0.023721835 -0.05182117
0.031810164 -0.035005644 0.03856862 -0.070136614 -0.026931178 0.034086943 0.020343056 0.0014807316
0.0004883099 -0.026267642 -0.0007847679 -0.011584347 0.07420988 0.001295297 -0.01824309 -0.008184856
-0.043493733 -0.046501648 -0.037465062 -0.013121678 0.0349087 0.00793435 -0.018567728 0.007022637
0.033049136 0.017686129 0.034436524 -0.014515494 0.02593786 0.050998624 0.008580027 -0.0015731606
-0.018590972 -0.021200886 0.059109677 -0.010718812 -0.044633567 0.01554885 0.020755852 -0.035287514
0.054973457 -0.035499033 0.041087974 -0.044171154 0.023485903 -0.032640595 0.009858413 0.022292335
0.013782168 0.00096315396 -0.013229613 0.015338625 0.028970294 0.03862323 -0.035972007 0.020996138
-0.008823217 0.014234468 -0.08242011 0.02817103 0.037817877 -0.053184036 -0.01703919 -0.042302053
-0.080001645 0.020803457 -0.026392674 -0.018085685 0.014109297 -0.025788153 -0.023549251 -0.012943344
-0.010724016 0.029062925 -0.026868394 0.03189843 0.018390587 0.012615699 0.0036367073 2.0339146e-05
0.030895019 -0.010227767 -0.06746354 0.011471024 -0.038709424 0.0352618 -0.05716423 -0.0319677
0.0021172487 0.0028541272 0.024892546 -0.013635106 0.009463366 0.0053466065 -0.04528532 0.011259594
-0.0024665594 0.01750351 -0.0025222672 -0.0254104 -0.026856845 -0.01200019 0.008940868 0.048130717
0.045066677 -0.031848192 0.017056765 -0.005666931 -0.020435177 -0.044959534 0.015808176 -0.022236796
-0.01291193 -0.013850315 0.01507313 -0.027966866 0.058042794 -0.020923613 0.0042987578 -0.07308171
0.013249287 0.062119823 -0.009420362 0.006975691 -0.00078869826 -0.01101551 -0.018727379 0.0074926917
-0.0009238855 -0.015164746 -0.014931639 0.024752537 0.02085262 0.017232997 0.03863788 0.035572294
-0.024072105 0.004045263 -0.011602649 -0.04226395 -0.030870395 0.012392974 -0.008944576 -0.037333924
0.0049587903 0.0073978575 0.0603483 0.032150235 -0.0115614785 0.015505832 0.013571755 0.053731434
-0.014547831 -0.012635851 -0.052827023 0.013194694 0.021413159 0.03554996 -0.0038159597 -0.036963172
0.008463251 -0.0151395025 0.016836047 0.023786929 -0.023677297 -0.014466197 -0.0154254325 0.013418158
00000000: d36d 02bc f572 f7bb 95e6 723c 4b4d b8bc
00000010: 80c4 b4bc 2bac e4bc 19ef 9039 ef20 fc3c
00000020: 7ae1 a9bc 5e9a 48bc e3a1 d73c 3a68 fc3b
00000030: 76a5 1fbd 9ce9 a7bc c300 c73c a842 a33a
00000040: 338b 19bd 936d 36bc fa63 f33b ff88 c1bb
00000050: 5869 603c 5654 193c cd1b 49bc afce dd3c
00000060: d642 69bd dc21 a5bb 7c98 773b 7020 cc3c
00000070: 25be 8dbd 31b1 2cbd 710b e3bc e07e ff3c
00000080: 2cbe 383d 26fa dfbc a080 8e3c bb3c 0d3d
00000090: 9d59 ccbc 903f b4bc e5c3 9e3c 0cb3 5dbc
000000a0: d2f1 3a3d 3e6d 6cbd 450a edbc 0ad7 1dbd
000000b0: 38f5 6fbc ff7d 163d 0d84 a7bc 1290 473d
000000c0: d0fd c8bb fcbd 153c ddb0 aaba e49b 24bd
000000d0: 8c73 efbb 4b77 a9bc 53f5 88bd 1a37 7a3c
000000e0: e88c e73c 35ca 9c3c 918d 953c fd87 2b3d
000000f0: 11be 12bc c9b9 1abd 78c9 acbc bfb6 06bd
00000100: d3fc 42bd 9a5c 843b 9133 8a3c 581c 6d3b
00000110: 3165 e4bc 5ff5 b33c 130c 5fbc 00b0 ffbc
00000120: 8754 1cbd 1753 5dbc 7ed4 babc cd1f e53c
00000130: c351 8bbc 9eb4 9bbb 3d57 453d 2732 573d
00000140: 7ac4 08bd 4c97 5abc 6ecb 493d e077 a5bc
00000150: 132e 37bd 46b3 07bd 4b54 c2bc 6f42 54bd
00000160: 604b 023d 1462 0fbd 21fa 1d3d c9a3 8fbd
00000170: c69e dcbc c09e 0b3d 7ba6 a63c 1c15 c23a
00000180: ec01 003a 3d2f d7bc e2b8 4dba 46cc 3dbc
00000190: 59fb 973d f5c6 a93a 8872 95bc c619 06bc
000001a0: 7c26 32bd 8378 3ebd f774 19bd 4efc 56bc
000001b0: 6dfc 0e3d 13ff 013c 591b 98bc 261e e63b
000001c0: 885e 073d 80e2 903c 500d 0d3d 65d2 6dbc
000001d0: a37b d43c efe3 503d 3e93 0c3c 8332 ceba
000001e0: 184c 98bc 7bad adbc fd1c 723d f59d 2fbc
000001f0: b0d1 36bd 9bc0 7e3c 2d08 aa3c a489 10bd
00000200: d92b 613d 6f67 11bd dd4b 283d d0ec 34bd
00000210: 8265 c03c 25b2 05bd 2e85 213c 6a9e b63c
00000220: 9ace 613c 2b7c 7c3a 05c1 58bc db4e 7b3c
00000230: 1c53 ed3c 6433 1e3d 6257 13bd 1800 ac3c
00000240: 418f 10bc b037 693c e0cb a8bd efc6 e63c
00000250: ebe6 1a3d 81d7 59bd c595 8bbc eb44 2dbd
00000260: e7d7 a3bd 036c aa3c 7335 d8bc 6e28 94bc
00000270: ae2a 673c ad41 d3bc 5cea c0bc 5210 54bc
00000280: c9b3 2fbc 5f15 ee3c 1b1b dcbc eea7 023d
00000290: dba7 963c 14b2 4e3c d355 6e3b fc9d aa37
000002a0: 8d17 fd3c 5d92 27bc 532a 8abd f6f0 3b3c
000002b0: c68d 1ebd ad6e 103d 0a25 6abd 90f0 02bd
000002c0: 8ac1 0a3b 4f0c 3b3b 74eb cb3c c865 5fbc
000002d0: 3c0c 1b3c 9632 af3b 1a7d 39bd 297a 383c
000002e0: 00a6 21bb 8563 8f3c 9f4c 25bb 7929 d0bc
000002f0: e302 dcbc 729c 44bc b87c 123c b724 453d
00000300: d697 383d 4073 02bd a1ba 8b3c aab1 b9bb
00000310: ac67 a7bc 7d27 38bd 2680 813c f129 b6bc
00000320: 8f8c 53bc 6eec 62bc 4af5 763c c51a e5bc
00000330: 48be 6d3d ff67 abbc 98dc 8c3b ddab 95bd
00000340: 8a13 593c 5b71 7e3d dd57 1abc 5694 e43b
00000350: a5c0 4eba 667a 34bc 296a 99bc 4185 f53b
00000360: e830 72ba 8e75 78bc d5a3 74bc d5c5 ca3c
00000370: 1dd3 aa3c 372c 8d3c c142 1e3d 41b4 113d
00000380: dd32 c5bc 208e 843b 0a19 3ebc f71c 2dbd
00000390: e9e3 fcbc e70b 4b3c 458c 12bc 75eb 18bd
000003a0: 597d a23b ba69 f23b c72f 773d f7af 033d
000003b0: 5b6c 3dbc 2c0c 7e3c 115c 5e3c 7e15 5c3d
000003c0: 075a 6ebc 9a06 4fbc 2661 58bd 8f2e 583c
000003d0: a66a af3c d69c 113d 2e15 7abb b266 17bd
000003e0: 73a9 0a3c ad0b 78bc c0eb 893c cedc c23c
000003f0: e4f6 c1bc a103 6dbc f4ba 7cbc d5d7 5b3c

bias f4 [256]
-0.009350163 -0.0012964262 -0.04137726 0.114099175 0.042904124 -0.17965162 0.01737659 0.14889999
0.12911901 -0.11428681 0.13997516 -0.0089645535 0.023991711 -0.10041194 -0.07764564 -0.11740375
0.013868338 -0.028444419 0.1261559 -0.07222738 -0.04753883 -0.07957919 0.010581366 -0.037124995
-0.10928451 0.05233596 0.06755388 -0.12756428 0.011413879 -0.008746573 -0.0068313577 0.0010626795
0.045646314 0.043783817 -0.10205988 -0.0027338334 -0.03427096 -0.03363309 0.003226123 -0.049210574
-0.0065929457 -0.08750458 0.07134669 0.12352078 0.031550642 -0.074251726 -0.03471341 -0.071601644
0.011584685 0.09825044 0.05579607 0.11896253 0.11082291 -0.010716917 -0.012360648 0.12891658
0.037142158 0.038385846 -0.019784829 0.019622037 -0.11979611 0.057334777 -0.07289283 0.062347017
-0.09074451 -0.06779084 0.028158028 -0.016334284 -0.014813069 -0.060360495 -0.115551695 -0.100932404
0.0093233455 0.02183961 -0.031754017 -0.061027747 -0.033673026 -0.08920246 -0.080093 -0.03580828
-0.0733457 -0.07273397 -0.024203034 -0.07179212 -0.085174 -0.09136716 -0.028274244 0.154904
-0.02313954 0.06556532 -0.027244087 0.78762424 0.06004264 -0.13549224 -0.055086892 0.04608769
0.10383065 -0.006347241 0.007685263 0.060621995 0.13462992 0.031024667 0.057608236 -0.015471937
-0.11510243 -0.06943559 0.004644855 -0.16150647 0.00718238 0.055246454 0.009579766 -0.13764352
-0.091205634 0.054471634 0.07002802 -0.00814734 -0.08570247 0.13962083 0.053822868 -0.0035328763
0.09312983 -0.037644435 -0.0510886 0.03744101 -0.024688145 -0.028586654 0.069241375 0.0002604698
0.005352061 -0.060437076 0.09181656 -0.0055924593 0.02558695 0.0193248 -0.10503061 -0.16900982
0.09141727 0.022897905 -0.07698139 -0.0008928978 0.021263996 0.020069871 -0.0910081 0.048623875
0.07927745 -0.032233063 -0.034933627 -0.09840291 -0.021047706 -0.0314181 0.046087675 0.06439953
0.1153569 -0.097680725 0.014252228 -0.088058725 0.051464528 0.038941562 -0.053135507 0.0047465675
0.079300545 -0.052026305 0.024877373 -0.027871571 -0.02969795 0.063400246 -0.033465795 -0.017973224
0.055055004 -0.054730445 -0.016511198 -0.102206536 -0.08704051 -0.07507723 0.0022769256 -0.044239867
0.0076637743 -0.07072201 -0.021115534 -0.028543117 0.029631175 0.038442887 -0.0063024205 0.08348941
0.14453675 -0.11709115 0.07867713 -0.04508548 -0.08631878 -0.048854336 -0.015491057 -0.023037285
-0.092290185 -0.024255447 0.010827965 0.050681643 0.033671983 -0.1474528 0.036659483 -0.013194369
0.7319443 0.08615405 -0.038256053 0.03978256 0.16918302 0.12106739 -0.025973223 0.023815552
0.04805908 0.04298306 -0.12156553 -0.06618695 0.01143141 0.07717764 -0.0038649992 -0.020093178
0.085022606 0.123150736 0.059693716 0.012846461 0.01569762 -0.023950147 -0.095260955 0.04980504
0.016151225 -0.016941803 -0.020804135 0.0883871 -0.02515169 -0.0317141 -0.011235724 -0.14792915
0.114861414 0.104092576 0.08351714 -0.05517056 0.014178746 0.011837892 -0.054896466 0.16280358
0.040912397 0.17156507 -0.08889685 -0.10454176 -0.02291683 0.01461074 -0.004360784 0.00047376155
0.019521015 0.25857592 -0.011068043 -0.03510868 -0.013263309 -0.03614815 -0.009932208 -0.06499086
00000000: 6d31 19bc d8ec a9ba 347b 29bd d4ac e93d
00000010: 3cbc 2f3d 98f6 37be 5a59 8e3c 3d79 183e
00000020: c637 043e 340f eabd a655 0f3e 10e0 12bc
00000030: 448a c43c c6a4 cdbd ad04 9fbd 6171 f0bd
00000040: 0738 633c 4504 e9bc 032f 013e f3eb 93bd
00000050: 14b8 42bd 6afa a2bd 775d 2d3c 6110 18bd
00000060: 8fd0 dfbd 3b5e 563d b059 8a3d 36a0 02be
00000070: 4701 3b3c c94d 0fbc 95d9 dfbb 9b49 8b3a
00000080: a1f7 3a3d a956 333d c504 d1bd 1d2a 33bb
00000090: b55f 0cbd dac2 09bd 5d6d 533b 0791 49bd
000000a0: a309 d8bb 9a35 b3bd 371e 923d 76f8 fc3d
000000b0: 3f3b 013d 4a11 98bd a62f 0ebd e2a3 92bd
000000c0: b1cd 3d3c 8737 c93d 6b8a 643d a0a2 f33d
000000d0: 1ff7 e23d 0296 2fbc 5184 4abc b502 043e
000000e0: 6022 183d 7a3a 1d3d cb13 a2bc 65be a03c
000000f0: aa57 f5bd dfd7 6a3d d648 95bd 965f 7f3d
00000100: 42d8 b9bd edd5 8abd aaab e63c 7acf 85bc
00000110: 84b2 72bc 913c 77bd 5ea6 ecbd a6b5 cebd
00000120: f2c0 183c fbe8 b23c 8010 02bd 3bf8 79bd
00000130: baec 09bd c8af b6bd cc07 a4bd b4ab 12bd
00000140: 4536 96bd 8cf5 94bd 7145 c6bc bf07 93bd
00000150: b56f aebd b51e bbbd 639f e7bc 279f 1e3e
00000160: 228f bdbc 1c47 863d fe2e dfbc bea1 493f
00000170: 45ef 753d 7abe 0abe cba2 61bd 72c6 3c3d
00000180: 2aa5 d43d 84fc cfbb a9d4 fb3b c54e 783d
00000190: 6ddc 093e 7127 fe3c 9df6 6b3d 027e 7dbc
000001a0: d3ba ebbd 3f34 8ebd de33 983b f461 25be
000001b0: 2c5a eb3b 1b4a 623d 73f4 1c3c 6cf2 0cbe
000001c0: 05ca babd a61d 5f3d da6a 8f3d 6c7c 05bc
000001d0: c784 afbd c3f8 0e3e 5e75 5c3d d487 67bb
000001e0: daba be3d 0d31 1abd 4842 51bd bf5b 193d
000001f0: cb3e cabc 8f2e eabc 6cce 8d3d aa8f 8839
00000200: 5760 af3b de8c 77bd 520a bc3d f340 b7bb
00000210: b99b d13c 0b4f 9e3c 4a1a d7bd e910 2dbe
00000220: fa38 bb3d 6394 bb3c 6ba8 9dbd 5b11 6aba
00000230: d531 ae3c 9269 a43c 7462 babd d429 473d
00000240: 375c a23d d106 04bd 9016 0fbd 7787 c9bd
00000250: 3d6c acbc 44b0 00bd 6ec6 3c3d e7e3 833d
00000260: 3d40 ec3d d50c c8bd 2d82 693c 2258 b4bd
00000270: 78cc 523d 3081 1f3d 9ea4 59bd 1889 9b3b
00000280: 5368 a23d 8919 55bd a2cb cb3c ec52 e4bc
00000290: 1e49 f3bc fdd7 813d 6e13 09bd 953c 93bc
000002a0: 5b81 613d 082d 60bd 7e42 87bc a951 d1bd
000002b0: 4b42 b2bd 17c2 99bd 7938 153b dd34 35bd
000002c0: 6620 fb3b b4d6 90bd 7cfa acbc 41d3 e9bc
000002d0: 14bd f23c 4a76 1d3d 8984 cebb 7ffc aa3d
000002e0: 7101 143e 7ccd efbd 7a21 a13d 8dab 38bd
000002f0: e7c7 b0bd 7c1b 48bd 34ce 7dbc b0b8 bcbc
00000300: a302 bdbd 5cb3 c6bc c767 313c 8e97 4f3d
00000310: a2eb 093d defd 16be 4128 163d 322d 58bc
00000320: b460 3b3f 8971 b03d 61b2 1cbd 0af3 223d
00000330: 503e 2d3e 2ef2 f73d ccc5 d4bc d518 c33c
00000340: 99d9 443d 010f 303d 59f7 f8bd 068d 87bd
00000350: cf4a 3b3c 4f0f 9e3d ed4b 7dbb 739a a4bc
00000360: 5520 ae3d 7436 fc3d 6681 743d f679 523c
00000370: 4c98 803c 1933 c4bc 2d18 c3bd 5f00 4c3d
00000380: 934f 843c 89c9 8abc 6f6d aabc 4c04 b53d
00000390: eb0a cebc a5e6 01bd 0b16 38bc bd7a 17be
000003a0: 763c eb3d 7d2e d53d 090b ab3d 86fa 61bd
000003b0: f94d 683c b8f3 413c 1edb 60bd fbb5 263e
000003c0: c293 273d c1ae 2f3e 8d0f b6bd fe19 d6bd
000003d0: 13bc bbbc e361 6f3c e8e4 8ebb 3363 f839
000003e0: 89ea 9f3c 1064 843e bd56 35bc 1fce 0fbd
000003f0: 5a4e 59bc 1510 14bd b3ba 22bc ee19 85bd
