outputs/tags/2023-03-29-01-48-07/trained_model/best_weight.pt (torch, 842999 bytes, 8 tensors)

weight f4 [32, 1, 4, 4]
0	0xbef696b9	-0.48161867
1	0xbec36d8c	-0.38169515
2	0xbd91540a	-0.07096107
3	0xbc9bc9c2	-0.019017104
4	0xbe1a7a1b	-0.15085642
5	0xbe92e2cb	-0.28688654
6	0xbea04284	-0.31300747
7	0xbdadf248	-0.08493477
8	0x3e9f43e8	0.31106496
9	0x3e8bcdff	0.273056
10	0xbe864d72	-0.2623096
11	0x3e481084	0.1953755
12	0xbf0b5c59	-0.54437786
13	0xbd928ba0	-0.071555376
14	0xbeddc752	-0.43316132
15	0x3e069b57	0.13145195
16	0x3ea7f2c3	0.328024
17	0xbce68bb8	-0.028142795
18	0xbf5103e6	-0.81646574
19	0x3cdafa85	0.026730785
20	0x3d89501a	0.06704731
21	0xbdd7c498	-0.10535544
22	0xbd7c6c6a	-0.06162683
23	0x3e3402f6	0.17579255
24	0x3df77cbd	0.12084339
25	0xbf31f20d	-0.69509965
26	0xbe022f05	-0.12713249
27	0xbe9d60c9	-0.30737904
28	0x3de8f45c	0.11374733
29	0x382b6463	4.086307e-05
30	0xbf23eda1	-0.6403447
31	0xbe838eac	-0.25694788
32	0xbd19f0ec	-0.037583277
33	0xbddf85d7	-0.109142
34	0xbdc011f7	-0.093784265
35	0xbf0a6113	-0.54054374
36	0x3dde6960	0.108599424
37	0xbdbb9d83	-0.09160902
38	0xbef7b5aa	-0.48380786
39	0xbf298b17	-0.6622786
40	0x3e3d456c	0.18483514
41	0x3e0eed5f	0.13957737
42	0xbe3f45fa	-0.18679038
43	0xbeafb70c	-0.3431934
44	0x3e22e15e	0.15906283
45	0x3e5c4f6e	0.21514675
46	0x3e4f2e78	0.2023257
47	0xbe8e65f2	-0.27812153
48	0xbc8260b3	-0.01591525
49	0xbdb62064	-0.08892897
50	0x3d85db08	0.065359175
51	0xbcae3f49	-0.021270411
52	0xbc83bae6	-0.016080331
53	0x3e7d0e72	0.24712542
54	0x3e3daadf	0.18522213
55	0xbd281e01	-0.04104424
56	0x3cf9eefb	0.030509463
57	0x3e4898df	0.19589566
58	0x3f140cf0	0.5783224
59	0x3dfbe8d3	0.12300267
60	0xbdba1832	-0.09086646
61	0x3ed6eacb	0.41976008
62	0xc014b346	-2.323442
63	0x3e738d67	0.2378441
64	0x3bc193f3	0.0059075295
65	0xbd9d824f	-0.0769087
66	0x3fc2187b	1.5163721
67	0xbc8b96ef	-0.017039744
68	0x3da3277d	0.07966516
69	0xbdc3c11f	-0.09558319
70	0xbfe0d73f	-1.7565688
71	0x3ccf374a	0.025294919
72	0xbdb2aaba	-0.0872397
73	0xbdf1c26f	-0.118046634
74	0xbcbc30d9	-0.022972511
75	0xbd973542	-0.07383205
76	0xbda33014	-0.079681545
77	0xbc947f1e	-0.01812702
78	0xbe1741c5	-0.14771183
79	0xbd344be3	-0.044017684
80	0x3d875e02	0.066097274
81	0xbf54f777	-0.831901
82	0xbf6863e9	-0.9077745
83	0x3dd508bf	0.10402059
84	0xbe075594	-0.13216239
85	0xbe587d8c	-0.21141642
86	0xbf0f49ec	-0.5597217
87	0x3d4d1ba7	0.0500752
88	0xbde6fa72	-0.112782374
89	0x3d675db3	0.056485843
90	0x3f1d9106	0.61549413
91	0xbdb63e88	-0.08898646
92	0x3dd30cc2	0.10305168
93	0x3d81e8fe	0.06343268
94	0xbf6dfe4a	-0.9296614
95	0xbdd367a0	-0.10322499
96	0x3d8d51a7	0.069003396
97	0xbd8be5ee	-0.06830965
98	0xbce433b0	-0.027856678
99	0xbe901ae3	-0.28145513
100	0x3e0b4b39	0.13602914
101	0x3e174a64	0.14774472
102	0x3e548160	0.20752478
103	0xbe25c3fd	-0.16188045
104	0x3e8fb157	0.28064987
105	0x3e5b2acf	0.21403049
106	0x3c1dbbdc	0.009627309
107	0xbfa6cac4	-1.3030629
108	0xbce744cf	-0.028231053
109	0x3d019e5e	0.03164517
110	0x3d668d02	0.05628682
111	0x3cbf58b9	0.023357736
112	0xbf430f37	-0.7619509
113	0xbf0745a2	-0.52840626
114	0x3e0e6771	0.13906647
115	0x3d52aa3d	0.051431883
116	0x3d9230f4	0.07138243
117	0xbed0b075	-0.40759626
118	0x3f59b080	0.8503494
119	0x3d16e04a	0.036834992
120	0x3dd12420	0.102119684
121	0xbf7189e4	-0.9435103
122	0xbf1cfbe4	-0.61321855
123	0xbd383fb7	-0.04498264
124	0xbe5df7ca	-0.21676555
125	0xbde30131	-0.110842116
126	0xbf269db3	-0.6508438
127	0xbe078fe2	-0.1323848
128	0xbf228929	-0.6349054
129	0xbf98c7c1	-1.193596
130	0x3e0a02d4	0.13477641
131	0xbd5d8413	-0.054081034
132	0xbef6107b	-0.4805945
133	0xbf873a75	-1.0564715
134	0x3e7fe111	0.249882
135	0x3d8d4cfe	0.06899451
136	0xbf8f484c	-1.1193938
137	0xbf8decd2	-1.1087897
138	0x3e39248c	0.18080348
139	0x3daaaba3	0.08333518
140	0xbf00ac8e	-0.502633
141	0xbf92e225	-1.1475264
142	0x3e8f128e	0.27943844
143	0x3c2f7a36	0.01071029
144	0xbe314c65	-0.17314298
145	0xbf7c27b8	-0.98498106
146	0x3e44fe60	0.19237661
147	0x3c93c037	0.018035991
148	0xbe83d656	-0.25749463
149	0xbdb64bcb	-0.08901175
150	0xbcb3c514	-0.02194456
151	0x3d6d1abf	0.057886835
152	0x3e102bdc	0.14079231
153	0xbccb5610	-0.024821311
154	0xbbac9457	-0.005266707
155	0x3f2eb4e2	0.68244755
156	0xbeb74d44	-0.35801136
157	0xbe1a98b6	-0.15097317
158	0xbe3fe898	-0.18741071
159	0xbf473d0e	-0.7782754
160	0xbda35b52	-0.07976402
161	0xbec8cf86	-0.39220828
162	0xbebbc29f	-0.36671922
163	0xbda09f0f	-0.07842838
164	0xbe379a5a	-0.17929974
165	0xbde37b8a	-0.111075476
166	0xbda90c33	-0.0825428
167	0xbe8785d3	-0.26469287
168	0x3d26ad9e	0.040692918
169	0x3e53b053	0.20672731
170	0x3e152745	0.14565761
171	0xbcd7a629	-0.026324349
172	0x3e235a12	0.15952328
173	0x3eb0ea52	0.34553772
174	0x3ed598eb	0.4171823
175	0x3e5d629d	0.21619649
176	0xbd32d41e	-0.043659322
177	0xbf93d7d6	-1.1550243
178	0xbf92966f	-1.1452159
179	0xbcc78a98	-0.024358079
180	0x3e545c03	0.20738225
181	0xbd625704	-0.055258766
182	0xbf9460fe	-1.15921
183	0x3d96693a	0.07344289
184	0x3e736867	0.23770295
185	0xbeb6de0f	-0.35716292
186	0xbf114375	-0.56743556
187	0xbd833a1e	-0.06407569
188	0x3ebdf9c0	0.37104607
189	0xbea266f6	-0.31719178
190	0xbecf6c2b	-0.40512213
191	0x3dc85a2c	0.09782824
192	0x3cf4258d	0.029803062
193	0x3f8d5fa5	1.1044813
194	0xbd33b549	-0.04387406
195	0x3b92e038	0.0044822954
196	0xbc394f47	-0.011310405
197	0xbf9d843e	-1.2305982
198	0xbcdfb908	-0.02730991
199	0x3eae564b	0.3405021
200	0xbd8cf0bf	-0.06881856
201	0xbd588c0b	-0.05286793
202	0xbd409283	-0.047014724
203	0xbedc268a	-0.42998153
204	0xbd08eb35	-0.033427436
205	0xbd4f6e9c	-0.050642595
206	0xbcfd2d4b	-0.030905386
207	0xbda4f755	-0.08054987
208	0x3d95775a	0.07298155
209	0x3ebf3c1c	0.37350547
210	0xbd04a73d	-0.032386053
211	0x3d6234e5	0.055226225
212	0x3f735eb0	0.95066357
213	0x3efc9655	0.49333444
214	0x3c67937f	0.014134287
215	0xbdbfcf19	-0.093656726
216	0xbf8e93c3	-1.1138843
217	0xbf6fca53	-0.936681
218	0xbc88e545	-0.016710887
219	0xbd01e991	-0.031716887
220	0xbd47caa8	-0.048777252
221	0xbc48ae3b	-0.012248571
222	0xbca863cf	-0.020555405
223	0xbccab69f	-0.024745284
224	0x3e82e502	0.25565344
225	0x3e976834	0.29571688
226	0x3cad3eaf	0.021148054
227	0xbe28683d	-0.16446014
228	0xbe7da7bb	-0.24771015
229	0xbd2dd0bd	-0.042435396
230	0xbefc614d	-0.49292985
231	0xbf5ec7cd	-0.8702362
232	0xbdc7badf	-0.0975244
233	0xbe808688	-0.2510264
234	0xbd84bd8f	-0.06481468
235	0x3de7152a	0.112833336
236	0xbe7546c0	-0.2395277
237	0xbeb7e9b5	-0.35920492
238	0x3e0466da	0.1292986
239	0x3dec46fb	0.11536976
240	0x3e0bfa5b	0.13669722
241	0xbf2b79d3	-0.66982764
242	0xbf200bec	-0.6251819
243	0xbf17bc09	-0.59271294
244	0x3e54a6a3	0.20766692
245	0x3e67a7df	0.22622631
246	0xbe2d5c1e	-0.16929671
247	0x3c8b48b7	0.017002447
248	0x3e43cf65	0.19122083
249	0xbed745cb	-0.42045435
250	0xbeabf2f9	-0.3358381
251	0xbe330b10	-0.17484689
252	0xbf18f800	-0.5975342
253	0x3df70953	0.12062325
254	0xbe24c27b	-0.16089813
255	0xbe6556f3	-0.2239645

weight f4 [32, 32, 5, 5]
0	0xbd9d26ec	-0.076734394
1	0xbef6bd53	-0.48191318
2	0x3f83f31b	1.0308565
3	0x3eae08a0	0.33990955
4	0x3e8500dc	0.25977218
5	0x3f912235	1.1338564
6	0xbea9c768	-0.33159947
7	0x3f048e4e	0.5177964
8	0x3ea7ec73	0.32797584
9	0x3e8ee71d	0.279107
10	0x3f1d37fa	0.6141354
11	0xbe29ca93	-0.16581182
12	0x3ee62791	0.44952062
13	0x3e5ce110	0.2157023
14	0x3d0997cb	0.033592027
15	0xbfdd4b16	-1.728854
16	0x3f8b1d1f	1.0868262
17	0x3d143831	0.0361864
18	0x3e84d9e0	0.25947475
19	0xbee87735	-0.45403448
20	0x3cd6c2be	0.026215907
21	0x3f2674d3	0.6502201
22	0xbe0a6d19	-0.1351818
23	0x3e8958d3	0.2682558
24	0x3ea91afd	0.33028403
25	0xbe45dba1	-0.19322063
26	0x3d7842b9	0.060610507
27	0x3e319ef6	0.17345795
28	0xbdf5493a	-0.119768575
29	0x3ea39803	0.31951913
30	0xbf3362d8	-0.700727
31	0xbe96af24	-0.29430497
32	0x3eaf43fc	0.34231555
33	0x3f62bbb7	0.8856768
34	0x3f0c43a5	0.5479072
35	0x3edf06e2	0.4355994
36	0x3c477eb9	0.012176209
37	0x3d8ad480	0.067788124
38	0xbe332ee7	-0.1749836
39	0x3e8de806	0.27716082
40	0xbd6a62b9	-0.057223056
41	0x3e8a8e10	0.2706151
42	0x3f03eab8	0.5153003
43	0x3edd4804	0.43219006
44	0xbea23b12	-0.31685692
45	0xbf24ea90	-0.64420414
46	0xbf4e7e09	-0.80661064
47	0x3d7f6ff4	0.062362626
48	0xbed0f3be	-0.4081096
49	0xbe0653b5	-0.13117869
50	0x3e4b7ca2	0.19871762
51	0x3e94ef03	0.290886
52	0x3ba38b79	0.0049909917
53	0x3ed6ef46	0.41979426
54	0xbecfc14a	-0.40577155
55	0xbeaf6212	-0.3425451
56	0xbd03df35	-0.03219529
57	0x3e97ba21	0.29634193
58	0xbe4add54	-0.19810992
59	0xbd912018	-0.070861995
60	0x3eded366	0.4352066
61	0x3d891226	0.06692915
62	0x3e04fc32	0.1298683
63	0x3c8ad6f1	0.016948195
64	0x3e042839	0.12905969
65	0xbcfbbaf5	-0.030728796
66	0x3e3636cd	0.17794342
67	0xbe127299	-0.14301528
68	0x3d9c3c8b	0.07628735
69	0xbe28244e	-0.16420099
70	0x3ea0e199	0.31422117
71	0xbf574fa8	-0.8410592
72	0xbf0cc22b	-0.54983777
73	0xbee94ddd	-0.45567217
74	0x3dc82390	0.09772408
75	0xbe367751	-0.17818953
76	0x3bf33aa7	0.0074227634
77	0xbe611f9e	-0.21984717
78	0xbe97cc3d	-0.2964801
79	0xbe7bc128	-0.24585402
80	0xbe5ce21b	-0.21570627
81	0xbecbaa09	-0.39778164
82	0xbf00a31e	-0.502489
83	0xbd70edec	-0.05882065
84	0xbe052996	-0.13004145
85	0x3e3bade4	0.18328053
86	0xbdca783c	-0.09886214
87	0xbdf6d667	-0.12052613
88	0x3d824180	0.063601494
89	0x3cfcbc0c	0.030851386
90	0xbf3f2385	-0.74663574
91	0xbe01ebe9	-0.12687649
92	0xbe290d30	-0.16508937
93	0xbe975d5f	-0.29563424
94	0xbf6e7ef4	-0.93162465
95	0xbf5095b5	-0.81478435
96	0xbfb12934	-1.3840699
97	0xbf884a62	-1.06477
98	0xbf9c8c1b	-1.2230257
99	0xbfee6ccc	-1.8626952
100	0x3e976a2e	0.29573196
101	0xbeca1a59	-0.39473227
102	0xbf4e9c7a	-0.80707514
103	0xbecb8877	-0.39752552
104	0xbf80685c	-1.0031848
105	0xbf2dfc84	-0.67963433
106	0xbe0ac2a0	-0.13550806
107	0xbf2bda2b	-0.6712977
108	0xbe43a3df	-0.1910548
109	0xbf0d627c	-0.552284
110	0xb9afe6f4	-0.00033550675
111	0xbe809526	-0.2511379
112	0xbed83e0d	-0.4223484
113	0x3eec8df1	0.46202043
114	0xbea71398	-0.32632136
115	0x3ef1218b	0.47095904
116	0xbf3b88f6	-0.7325586
117	0x3ef41b3e	0.47677034
118	0x3edbd64c	0.42936933
119	0x3f0e0c35	0.55487376
120	0xbf888288	-1.0664835
121	0xbfaeb64d	-1.3649384
122	0xbe8f97e8	-0.28045583
123	0xbf0ad8a8	-0.5423684
124	0xbdd1ca29	-0.10243637
125	0xbf5900bd	-0.8476675
126	0x3f203710	0.6258402
127	0xbe7c33c7	-0.24629126
128	0xbf8309ff	-1.0237426
129	0xbe5b0088	-0.21386921
130	0xbed2ce21	-0.4117289
131	0x3f5f09e5	0.8712447
132	0x3d431293	0.047625136
133	0xbe442feb	-0.19158904
134	0x3decbbfc	0.11559293
135	0x3d3951f7	0.045244183
136	0xbda87ff7	-0.08227532
137	0xbe4ec066	-0.20190582
138	0x3ebfb085	0.3743936
139	0xbe8139ae	-0.2523932
140	0x3f453218	0.7702956
141	0x3d7942ee	0.060854845
142	0x3cf1681a	0.029468585
143	0xbe5a4f62	-0.21319345
144	0x3f162115	0.5864423
145	0xbf01e59a	-0.5074097
146	0xbf624a4b	-0.8839461
147	0x3cfc686a	0.030811507
148	0xbe19ff8c	-0.1503889
149	0x3f8b01fe	1.0859983
150	0x3d911dd2	0.07085766
151	0xbec7d2d4	-0.39028037
152	0x3e8b5453	0.27212772
153	0xbce41b89	-0.027845161
154	0x3ebd54bb	0.36978707
155	0xbf31166e	-0.6917485
156	0xbef9a5df	-0.48759362
157	0x3bc001b7	0.0058595794
158	0xbda2dda0	-0.07952428
159	0xbdddf3fc	-0.10837552
160	0x3e4fffb6	0.2031239
161	0x3e27abc5	0.16374119
162	0xbdc3fe52	-0.09569992
163	0xbee581bd	-0.44825545
164	0xbeab9694	-0.3351332
165	0x3da2b31b	0.07944318
166	0xbe3ac450	-0.1823895
167	0xbda56893	-0.080765866
168	0x3db0cb38	0.08632511
169	0x3d09aa69	0.03360978
170	0xbf2b1e2b	-0.6684291
171	0xbe37b7bc	-0.17941183
172	0xbeff9162	-0.49915606
173	0xbec628ae	-0.3870291
174	0xbd9a03b4	-0.075202376
175	0xbf56f431	-0.83966357
176	0xbf9ab475	-1.2086321
177	0xbed7b73d	-0.42131987
178	0xbf02b18c	-0.51052165
179	0xbf01cddc	-0.5070474
180	0xbf1d6f98	-0.61498404
181	0x3d9e7908	0.07737929
182	0x3ee5df70	0.44897032
183	0x3edcee82	0.43150717
184	0x3f5986bf	0.8497123
185	0xbf844f04	-1.0336614
186	0x3f23941b	0.63897866
187	0x3ed990ea	0.42493373
188	0xbf301ce5	-0.6879409
189	0xbeedb8ea	-0.4643014
190	0x3fbe2259	1.4854232
191	0x3e09f008	0.13470471
192	0xbea48a11	-0.32136586
193	0x3e3152a7	0.17316686
194	0xbe5575c7	-0.2084571
195	0xbf5f3e4a	-0.8720442
196	0xbf0ebce7	-0.5575699
197	0xbec4beb9	-0.3842676
198	0xbe53c1c4	-0.20679384
199	0xbf1295cb	-0.57259816
200	0xbe2823bb	-0.1641988
201	0xbd1681be	-0.036744826
202	0x3e71e4c5	0.23622425
203	0xbe5ef86f	-0.21774457
204	0xbe8ea44b	-0.2785972
205	0x3f35402b	0.7080104
206	0xbe79fa91	-0.2441199
207	0x3db749db	0.08949634
208	0xbe6f6c4e	-0.23381159
209	0xbe468d8e	-0.19389936
210	0xbeb4c968	-0.3530991
211	0x3d2a5dd6	0.041593395
212	0xbe09d1b0	-0.13458896
213	0x3e285ff9	0.1644286
214	0x3e6fb29f	0.23407982
215	0x3d858ce3	0.06521013
216	0xbc5b1b3e	-0.013373194
217	0x3f0de478	0.5542674
218	0x3e627082	0.22113231
219	0x3efc95f1	0.49333146
220	0x3fc97680	1.5739288
221	0x3f07dfd9	0.5307594
222	0x3e90270a	0.28154784
223	0x3f359282	0.7092668
224	0x3f0c929a	0.54911196
225	0xbe6e25a9	-0.23256554
226	0xbf077e15	-0.5292676
227	0x3efa0fa3	0.48840055
228	0xbdba6bb1	-0.09102572
229	0x3eaf1990	0.3419919
230	0x3eb21325	0.3478023
231	0xbe6f3eed	-0.23363848
232	0x3ef6fafe	0.48238367
233	0xbebc03c8	-0.36721635
234	0x3ec4b29b	0.38417515
235	0x3f051711	0.5198832
236	0xbf408aeb	-0.7521197
237	0xbd0a6239	-0.03378508
238	0xbe9e4121	-0.30909064
239	0x3e51b4da	0.20479146
240	0x3c8af837	0.016964061
241	0xbce9b792	-0.028529916
242	0xbfda3d4c	-1.7049956
243	0xbf4bc09f	-0.7959079
244	0x3ee3cd3a	0.44492513
245	0xbfa28d77	-1.2699422
246	0xbeb2ad0f	-0.34897658
247	0xbd363fbd	-0.04449438
248	0x3e838403	0.25686654
249	0x3ee8bf91	0.45458654
250	0x3d7eee8c	0.062239215
251	0xbe00a432	-0.12562636
252	0xbd7caadc	-0.06168638
253	0xbeab7046	-0.33484095
254	0x3d287b6b	0.041133326
255	0xbf2e6cfd	-0.6813505

weight f4 [64, 32, 5, 5]
0	0x3de68e1f	0.11257576
1	0xbd646005	-0.055755634
2	0x3cec7983	0.028866535
3	0xbe576a3b	-0.21036617
4	0x3d9b4206	0.07580952
5	0x3d843a7c	0.064564675
6	0x3e44f8a6	0.19235477
7	0xbd2e65fb	-0.042577725
8	0xbe4c6163	-0.19959025
9	0x3dfd7f9b	0.123778544
10	0xbe452046	-0.19250593
11	0xbc6af484	-0.014340524
12	0xbc2cf2f6	-0.010555973
13	0x3e0554dc	0.13020653
14	0xbcef7d92	-0.029234681
15	0xbd7d8cfc	-0.06190203
16	0xbe12800e	-0.14306661
17	0xbde0e2ea	-0.109807804
18	0xbdf9e170	-0.12201202
19	0xbe81f203	-0.25379953
20	0x3e1a1f25	0.15050943
21	0x3e9035ab	0.28165945
22	0xbdc65fda	-0.09686251
23	0x3e2e130a	0.1699945
24	0x3d28bf26	0.04119792
25	0xbc3a3818	-0.011365913
26	0xbce0ed5a	-0.027456928
27	0xbd3d3bbf	-0.046199556
28	0xbdf48c0f	-0.119407766
29	0xbdd94b57	-0.10610073
30	0xbe2b7a5c	-0.16745895
31	0xbdb124c8	-0.086495936
32	0xbe340283	-0.17579083
33	0xbd8c618c	-0.06854543
34	0x3dd2db55	0.102957405
35	0xbc935e88	-0.017989412
36	0x3c3e8d00	0.011630297
37	0xbe3800b2	-0.17969015
38	0xbe0ae211	-0.135628
39	0x3e09a0c0	0.13440228
40	0xbdc52970	-0.09627044
41	0x3d9cdd22	0.07659365
42	0xbe4981ea	-0.19678465
43	0x3e098c25	0.13432367
44	0x3e00f5a7	0.12593709
45	0xbded1d6e	-0.11577879
46	0xbead63d3	-0.33865222
47	0xbe9d0fdc	-0.30676162
48	0x3da6a76c	0.08137402
49	0x3c17c156	0.0092624035
50	0xbe45356e	-0.19258663
51	0x3e188be7	0.14897119
52	0x3deea1d6	0.116519615
53	0xbdf379e6	-0.11888485
54	0xbe1cb4f4	-0.15303403
55	0xbbaa4a34	-0.005196834
56	0xbd7876b7	-0.06066009
57	0x3d4a0c10	0.04932791
58	0xbe8af475	-0.2713963
59	0xbef58826	-0.47955436
60	0x3db83ec8	0.089963496
61	0xbe61ed1e	-0.2206311
62	0xbce9fb73	-0.028562283
63	0xbde77f2d	-0.11303554
64	0xbe4d320a	-0.2003862
65	0xbe260333	-0.16212158
66	0x3d1bbab4	0.03801985
67	0xbd31dd84	-0.043424144
68	0x3cb93de3	0.022612518
69	0xbe478b82	-0.19486812
70	0xbbdbc052	-0.006706276
71	0xbd8b50e4	-0.06802538
72	0xbe0e9e4c	-0.13927573
73	0xbe2364a3	-0.15956359
74	0xbe982235	-0.29713598
75	0xbe410e5a	-0.18853131
76	0x3ddff5d6	0.10935561
77	0xbe2e2a61	-0.17008354
78	0xbe5abf2b	-0.21361987
79	0xbdf22a19	-0.11824436
80	0xbe0f7404	-0.140091
81	0xbe99b277	-0.3001897
82	0xbe20ee72	-0.1571596
83	0xbd748467	-0.05969658
84	0x3d54be0d	0.05193906
85	0xbe16bf4f	-0.14721416
86	0x3e6457f8	0.22299182
87	0xbddcd312	-0.10782446
88	0xbd98b2e7	-0.07455998
89	0x3e02ad5b	0.12761442
90	0xbb318218	-0.0027085599
91	0x3d93834e	0.07202779
92	0x3ed7c80c	0.4214481
93	0x3cc3166e	0.023814406
94	0xbd9227e5	-0.071365155
95	0x3e0f3fb0	0.13989139
96	0xbe2db5b5	-0.16963847
97	0x3e40effa	0.18841544
98	0xbe9466d1	-0.28984693
99	0xbe556d17	-0.20842396
100	0xbc0fa8ba	-0.008768255
101	0x3ebc4268	0.36769414
102	0x3d7e5d5a	0.062100746
103	0x3de25aa1	0.11052442
104	0xbdfe638a	-0.12421329
105	0xbe2c856b	-0.1684777
106	0xbd9a0c0d	-0.0752183
107	0x3e4c6d65	0.19963606
108	0x3dacd466	0.08438949
109	0x3e0d5438	0.13801658
110	0xbcfba415	-0.030717889
111	0x3cbc2a2f	0.022969333
112	0xbdb73e5f	-0.08947443
113	0xbe8df71b	-0.2772759
114	0x3c0df44d	0.008664203
115	0x3a923782	0.0011155459
116	0x3d19f499	0.037586782
117	0x3d9c16ca	0.07621534
118	0x3e017dc3	0.1264563
119	0xbeb6cb48	-0.35701966
120	0xbdf4d73c	-0.11955115
121	0x3c4f271d	0.012643603
122	0x3e39238b	0.18079965
123	0xbdbca56b	-0.092112385
124	0x3e207879	0.15670957
125	0x3d5bdebd	0.053679217
126	0x3d7328e3	0.059365164
127	0x3d250ebf	0.040297266
128	0xbd09fbc2	-0.03368736
129	0x3dd58601	0.1042595
130	0x3dc27de7	0.0949667
131	0x3b1d1bc1	0.0023972841
132	0x3c8885fb	0.01666545
133	0x3e355d2d	0.17711325
134	0xbba03cf8	-0.0048900805
135	0xbe15d5c6	-0.1463233
136	0xbd316c18	-0.043315977
137	0xbe49185d	-0.196382
138	0xbe194520	-0.14967775
139	0xbc6ba398	-0.0143822655
140	0x3c2a2439	0.010384613
141	0xbcca4918	-0.024693057
142	0xbde35d72	-0.11101808
143	0xbdbf2b78	-0.09334463
144	0xbd00ef4e	-0.03147822
145	0x3c98a099	0.018631266
146	0x3e52bd9c	0.20580143
147	0xbeb30abb	-0.34969124
148	0xbd6b66cd	-0.057471085
149	0xbe5d5813	-0.21615629
150	0x3e53ced3	0.20684366
151	0x3d8c30a5	0.06845216
152	0x3e093d6d	0.13402338
153	0x3d76905f	0.060196277
154	0x3dc2d170	0.09512603
155	0x3ea542f1	0.32277635
156	0x3c319d88	0.010840781
157	0x3dff1dee	0.124568805
158	0x3be59821	0.0070066606
159	0xbd53c8d9	-0.051705215
160	0xbe73ecfa	-0.23820868
161	0xbcf03374	-0.02932141
162	0x3d587b83	0.052852165
163	0x3bbf2fcf	0.0058345567
164	0xbe9d48bc	-0.30719554
165	0xbe6b77cf	-0.22994922
166	0xbe11f2fa	-0.14252844
167	0x3e8a7916	0.27045506
168	0x3c816360	0.015794456
169	0xbe0cdb96	-0.1375564
170	0xbd688f5b	-0.05677734
171	0xbe891cb1	-0.26779702
172	0xbd981d72	-0.07427491
173	0xbc825a9a	-0.015912343
174	0x3d60ad97	0.05485305
175	0xbd81adf1	-0.06332005
176	0x3cb3d1f4	0.0219507
177	0xbe154d09	-0.14580168
178	0xbd7d799a	-0.061883546
179	0x3b48fafe	0.003066718
180	0x3da2acf6	0.07943146
181	0x3dfa7975	0.12230197
182	0x3c9832e0	0.018578947
183	0xbe588d49	-0.21147646
184	0x3e5626a1	0.20913173
185	0xbd71e624	-0.05905737
186	0xbe18d984	-0.14926726
187	0x3dc16c36	0.09444468
188	0xbe0d7c81	-0.13817026
189	0xbd83fa11	-0.06444181
190	0x3e60446d	0.21901102
191	0x3d244a26	0.040109776
192	0xbe2f0797	-0.17092739
193	0xbe8a4d0e	-0.27011913
194	0xbddc3e47	-0.10754066
195	0xbda0b0aa	-0.07846196
196	0xbddf3343	-0.10898449
197	0xbd22d80f	-0.03975683
198	0xbd18ae0b	-0.037275355
199	0xbea70f75	-0.3262898
200	0x3c22b52f	0.009930893
201	0xbe68c94e	-0.22733042
202	0xbe80419d	-0.2505006
203	0x3db4fab6	0.08836882
204	0xbbaf417a	-0.0053483816
205	0x3b41cd46	0.0029571815
206	0xbdbfdebf	-0.09368657
207	0xbda970ef	-0.082734935
208	0xbd4082a9	-0.046999607
209	0x3cd23b3f	0.025663016
210	0x3cd131e5	0.025536487
211	0xbe2761bd	-0.16345878
212	0x3d3e8e02	0.046522148
213	0xbe375049	-0.1790172
214	0xbda8a597	-0.08234709
215	0xbe349eae	-0.17638656
216	0xbea0ef9f	-0.31432816
217	0x3e0e3adb	0.13889639
218	0xbea9bc9c	-0.3315171
219	0xbee0dc57	-0.43918106
220	0x3e070f27	0.13189374
221	0xbd9153a1	-0.07096029
222	0xbcc1f4fe	-0.023676392
223	0xbd0f1df4	-0.034940675
224	0xbe358f6a	-0.1773049
225	0x3dffcc57	0.124901466
226	0xbe7379e1	-0.23776962
227	0xbd415a46	-0.047205232
228	0x3d4f267f	0.050573822
229	0x3e43523e	0.19074342
230	0x3e386883	0.18008618
231	0xbe4a4860	-0.19754171
232	0x3ce7320d	0.028222108
233	0xbd81ecb5	-0.063439764
234	0x3d6c84aa	0.057743706
235	0x3caee56f	0.021349637
236	0xbe901782	-0.28142935
237	0x3de908d2	0.113786355
238	0xbc00eee1	-0.007869453
239	0xbe52d0e2	-0.20587495
240	0xbd63caeb	-0.05561344
241	0xbd7dbbb3	-0.061946582
242	0x3d11abe1	0.035564307
243	0xbe9c8877	-0.30572864
244	0x3bd458e9	0.0064803255
245	0xbd41b4cd	-0.047291566
246	0xbda1c685	-0.07899193
247	0x3dfe7468	0.124245465
248	0xbd94f926	-0.07274084
249	0x3b041a2c	0.0020157201
250	0xbd15df17	-0.03658971
251	0xbdaa4c2a	-0.083153084
252	0xbdfbed01	-0.12301064
253	0xbe66e77c	-0.22549242
254	0xbed4dcbb	-0.41574654
255	0xbda87ce2	-0.082269445

weight f4 [256, 256]
0	0x3db79f97	0.08965986
1	0xbe1a84cc	-0.1508972
2	0xbdadf7de	-0.084945425
3	0x3e3a722c	0.18207616
4	0xbeed6d22	-0.46372324
5	0x3e115299	0.14191665
6	0x3c15c2fd	0.009140727
7	0xbee256e4	-0.44206917
8	0xbe08ae6a	-0.13347784
9	0xbec0b6a1	-0.37639335
10	0x3be7b512	0.007071146
11	0x3e57b3fa	0.2106475
12	0x3ea0fdd0	0.31443644
13	0xbec799cf	-0.38984534
14	0xbf027fe7	-0.50976413
15	0x3e61ca33	0.22049789
16	0x3d85ca62	0.06532742
17	0xbed78831	-0.42096093
18	0x3e38d6ee	0.18050739
19	0x3d89d29f	0.06729626
20	0x3ed12fce	0.40856785
21	0x3e18e2db	0.14930288
22	0x3e60900b	0.21929948
23	0xbda2747b	-0.07932373
24	0x3d3e13ea	0.04640571
25	0x3c82977e	0.015941378
26	0xbd9bc8ea	-0.07606681
27	0x3d086d14	0.03330715
28	0xbe4baf08	-0.19890988
29	0xbebaa229	-0.36451843
30	0xbdfccd99	-0.12343902
31	0x3be6f091	0.0070477207
32	0x3dffc6e5	0.12489108
33	0x3e990469	0.29886177
34	0x3ddfbe4d	0.10924969
35	0x3e0a67f8	0.13516223
36	0x3dca5833	0.09880104
37	0x3eccd87e	0.4000892
38	0x3e01eeeb	0.12688796
39	0x3e1da531	0.15395047
40	0xbd0ed2fe	-0.034869187
41	0xbd92c207	-0.07165914
42	0xbd047ed2	-0.032347508
43	0x3cc17dac	0.023619495
44	0xbeaea39b	-0.34109196
45	0x3e87ce5f	0.26524636
46	0xbe3986ed	-0.18117876
47	0x3d2b3647	0.04179981
48	0x3dabe665	0.08393554
49	0x3de09865	0.10966567
50	0xbd3cc2b1	-0.04608411
51	0xbd0cc39d	-0.03436624
52	0x3f13b96c	0.57704806
53	0x3e937348	0.2879889
54	0xbef96765	-0.48711696
55	0xbd9fd738	-0.078047216
56	0x3ea16794	0.31524336
57	0xbb9dfabe	-0.0048211506
58	0x3dd74df9	0.10512919
59	0xbc90ce54	-0.01767651
60	0xbe2c272c	-0.16811818
61	0xbd507b81	-0.050899033
62	0xbe44e1a1	-0.19226696
63	0x3a6ea718	0.00091038784
64	0x3e0403a0	0.12892008
65	0xbec3a815	-0.38214174
66	0xbeb6838f	-0.35647246
67	0x3e629985	0.22128876
68	0x3e991b6a	0.29903728
69	0x3f0a2cee	0.5397481
70	0xbdf24916	-0.11830346
71	0x3daabb52	0.0833651
72	0xbf6c35b8	-0.9226947
73	0xbeae8bcc	-0.34091032
74	0x3c5cb423	0.013470682
75	0xbd0d8471	-0.034550134
76	0x3e72b721	0.2370267
77	0xbe8ceda2	-0.2752505
78	0xbdd3274b	-0.10310229
79	0x3d9b594d	0.07585392
80	0xbf311192	-0.69167435
81	0x3ef56fa9	0.47936752
82	0xbde9f3b7	-0.11423438
83	0x3d879d6b	0.06621822
84	0xbe56e8fc	-0.20987314
85	0xbd2ec0f2	-0.042664476
86	0xbb0b551b	-0.0021260444
87	0xbcd96627	-0.026537968
88	0x3d886cc2	0.06661369
89	0x3e848402	0.25881964
90	0xbca94095	-0.020660678
91	0x3e82af95	0.25524583
92	0x3e9b69f7	0.30354282
93	0xbd938f00	-0.072050095
94	0x3de85a63	0.11345365
95	0xbc3e5a43	-0.0116182
96	0x3ed6a553	0.41923007
97	0xbf0a86bf	-0.54111856
98	0x3d9cf4d6	0.07663886
99	0xbc43123e	-0.011906205
100	0x3e0c38d6	0.13693556
101	0x3d3980ab	0.045288723
102	0xbca77baf	-0.02044472
103	0xbc1753b1	-0.009236262
104	0x3e33a770	0.17544341
105	0x3edd4ff0	0.4322505
106	0x3e29c1b7	0.16577803
107	0x3e51edc3	0.20500855
108	0x3f5a60c9	0.8530393
109	0xbf0675fb	-0.52523774
110	0xbeb3baea	-0.35103542
111	0x3d178602	0.036993034
112	0xbed09981	-0.40742114
113	0xbdb7dcac	-0.08977637
114	0xbe5bd366	-0.21467361
115	0xbd739c07	-0.05947497
116	0xbd44a499	-0.048008535
117	0xba05464e	-0.00050840236
118	0x3bd02bf2	0.006352895
119	0x3c2ac876	0.01042377
120	0xbdc3e93b	-0.095659696
121	0xbef46ca8	-0.47739148
122	0x3e900088	0.28125405
123	0xbe2b6961	-0.16739418
124	0x3e01344b	0.12617604
125	0x3db67cba	0.089105085
126	0xbd8a1832	-0.06742896
127	0x3dca8a20	0.098896265
128	0xbc80dfbe	-0.015731689
129	0x3e1a51b1	0.15070225
130	0xbe111e19	-0.14171638
131	0xbe7268a6	-0.23672733
132	0xbe38810a	-0.18017974
133	0xbe5d9052	-0.21637085
134	0xbe061967	-0.13095628
135	0xbd95a699	-0.073071666
136	0xbe9b26e6	-0.30303115
137	0xbed8843f	-0.42288396
138	0xbe7f5445	-0.2493449
139	0xbeb2b9e1	-0.3490744
140	0xbe45ce42	-0.19316962
141	0x3e6267d7	0.22109924
142	0xbd618161	-0.055055026
143	0x3dbbb1fc	0.09164807
144	0x3e38eeec	0.18059891
145	0xbe829a0c	-0.25508153
146	0xbd1493e5	-0.036273856
147	0xbd0cd09d	-0.034378637
148	0x3d0581a8	0.032594353
149	0xbd517de1	-0.051145438
150	0x3e44f2e9	0.19233288
151	0x3e73efe6	0.23821983
152	0xbe83aafb	-0.25716385
153	0xbc2a6dca	-0.010402152
154	0x3e6c1f7b	0.23058884
155	0x3df15a42	0.117847934
156	0x3cce5920	0.025188982
157	0x3d950372	0.07276048
158	0xbc9c7140	-0.01909697
159	0x3da31ddc	0.079646796
160	0x3f09ae5d	0.5378168
161	0x3e9c160c	0.3048557
162	0x3e434e24	0.19072777
163	0xbd822765	-0.0635517
164	0x3e32e209	0.17469038
165	0xbde8b9d6	-0.113635704
166	0x3d7dfcda	0.062008716
167	0x3dee9529	0.11649544
168	0xbdefdfd3	-0.11712613
169	0x3e21c5ec	0.15798157
170	0x3e2c96bc	0.16854376
171	0x3dc56289	0.09637935
172	0x3e97cb6f	0.29647395
173	0x3e3aee59	0.18254985
174	0x3ea1d1ce	0.3160538
175	0xbd0f0c34	-0.034923747
176	0xbda90fed	-0.08254991
177	0xbdef4e3a	-0.116848424
178	0xbd63b43e	-0.055591814
179	0x3dc3744e	0.09543668
180	0xbe1b4af6	-0.15165314
181	0x3d719941	0.058984045
182	0x3dc0c693	0.09412875
183	0x3da1735c	0.07883331
184	0x3dd2118b	0.10257252
185	0xbe848929	-0.25885895
186	0x3d82802a	0.063721016
187	0xbe175361	-0.147779
188	0xbe9604f4	-0.29300654
189	0xbe17d173	-0.14825992
190	0x3d3ebcc6	0.046566747
191	0x3e0c53c1	0.13703825
192	0x3f328b9c	0.69744277
193	0xbdfc0474	-0.12305537
194	0x3e8e744b	0.278231
195	0xbeb205af	-0.3476996
196	0xbf437b73	-0.76360244
197	0x3c7a04d3	0.015259939
198	0xbe81bbd5	-0.25338617
199	0x3d8d71ff	0.06906509
200	0x3ec464bd	0.38358107
201	0x3d494a5e	0.049143188
202	0x3e523abc	0.20530218
203	0x3dcc3472	0.09970941
204	0xbe098e7b	-0.13433258
205	0x3e7ea7fc	0.24868768
206	0x3e29b0ed	0.16571398
207	0x3dfe08d0	0.124040246
208	0x3e8625d9	0.2620075
209	0xbe204cb1	-0.15654255
210	0x3e15184a	0.14560047
211	0xbd8fca21	-0.07020975
212	0xbeb7e662	-0.35917956
213	0x3c21b1eb	0.009869079
214	0xbcdef228	-0.027215078
215	0xbcef1b07	-0.029187692
216	0xbdb6d9cd	-0.08928261
217	0xbe0f6f90	-0.14007401
218	0x3d4e986d	0.050438333
219	0xbd8a0f45	-0.06741194
220	0xbebbd4b8	-0.3668573
221	0x3eb8b7c3	0.360777
222	0xbed4960d	-0.4152073
223	0x3e04c264	0.12964779
224	0x3d8d591f	0.06901764
225	0xbf2620de	-0.648939
226	0xbedaea1b	-0.42756733
227	0x3e85a81c	0.2610482
228	0x3e2c35a5	0.16817339
229	0x3d0e7095	0.034775335
230	0xbb5041a8	-0.0031777415
231	0x3d672e71	0.056440774
232	0x3ed9f472	0.4256931
233	0xbd382b3b	-0.044963103
234	0xbdb5e3ef	-0.088813655
235	0x3c837b36	0.016049962
236	0x3ba47bf2	0.0050196582
237	0x3e7f9e4f	0.24962734
238	0xb898ae38	-7.2803756e-05
239	0xbe8a9a57	-0.27070877
240	0xbefb1eef	-0.49047038
241	0x3da640c6	0.08117823
242	0xbf057c90	-0.5214319
243	0x3d36f4e3	0.044667136
244	0x3e4e68cd	0.20157166
245	0x3dd0f358	0.10202664
246	0x3de3c5c9	0.11121709
247	0xbe479920	-0.19492006
248	0x3d475d97	0.04867324
249	0x3de3c9ea	0.111224964
250	0xbaac916e	-0.00131659
251	0x3cc6490c	0.024204753
252	0xbe4b11a9	-0.19830956
253	0xbee36a29	-0.4441693
254	0xbea66be1	-0.3250418
255	0xbecb1bb5	-0.39669576

bias f4 [256]
0	0x3d52444e	0.05133467
1	0x3d79dfa5	0.0610043
2	0x3b3317da	0.002732745
3	0x3d19c310	0.03753954
4	0xbc2e3c32	-0.010634469
5	0xbb681dce	-0.0035418156
6	0xbd6ec60b	-0.058294337
7	0xbce00839	-0.02734767
8	0x3c148e4f	0.009067132
9	0xbca3c1fe	-0.019989964
10	0xbca0a6d1	-0.019610794
11	0xbd3bf2b8	-0.04588577
12	0xbbf767d9	-0.0075502214
13	0x3d49f369	0.0493044
14	0xbc187ae4	-0.009306643
15	0x3ca47d82	0.020079378
16	0x3ccc8efb	0.024970522
17	0x3cc55c6e	0.024091925
18	0x3d3d3513	0.046193194
19	0x3a86d370	0.0010286402
20	0xbdb5e019	-0.08880634
21	0xbd8700d4	-0.06591955
22	0x3ccfc02f	0.025360195
23	0x3d6bc444	0.05756022
24	0x3c2d50c7	0.010578341
25	0x3ccf527d	0.025307888
26	0x3cd4f9df	0.025998054
27	0xbcd35e0a	-0.025801677
28	0xbd3a6b02	-0.045512207
29	0x3d66b660	0.05632627
30	0x3d0d12da	0.034441806
31	0xbb81baae	-0.0039590215
32	0xbd9fd79b	-0.07804795
33	0xbe0cbec6	-0.1374465
34	0x3c76d4ba	0.015065366
35	0xbd4809e2	-0.04883755
36	0x3de21440	0.11039019
37	0xbc591f54	-0.013252098
38	0xba83fc64	-0.0010069725
39	0xbdc67ab7	-0.09691375
40	0x3d766ce4	0.06016244
41	0x3e0a1335	0.1348389
42	0x3dfa0eb6	0.12209837
43	0x3c8b4a7a	0.017003287
44	0xbd299d30	-0.04140967
45	0x3e294bfd	0.16532893
46	0xbcf109d0	-0.029423624
47	0x3d99bc32	0.075065985
48	0x3cc1379f	0.023586093
49	0xbd440134	-0.04785271
50	0xbcd795b8	-0.026316509
51	0xbd49e845	-0.049293775
52	0x3c7243a6	0.014786636
53	0x3cf3f5b0	0.029780239
54	0x3df350ac	0.11880621
55	0xbd7f619e	-0.062348954
56	0xbbe376de	-0.0069416603
57	0xbd85af3c	-0.06527564
58	0xbc9600d8	-0.01831095
59	0x3d9b1def	0.07574069
60	0x3c92ec69	0.017934995
61	0x3bdbb77a	0.0067052217
62	0x3d177489	0.03697637
63	0xbcd55e18	-0.026045844
64	0xbdb3c1c6	-0.08777194
65	0xbda70668	-0.08155519
66	0x3e2ee3b2	0.17079046
67	0x3dfd1288	0.1235705
68	0xbcccdda0	-0.025008023
69	0xbd8b9533	-0.06815567
70	0x3ca65ac5	0.020306954
71	0xbca982d3	-0.020692265
72	0xbbf2c21e	-0.0074083945
73	0x3d1694f0	0.03676313
74	0x3e2c5d7c	0.16832536
75	0x3d4e7388	0.050403148
76	0x3d8cb535	0.068705
77	0xbdf15305	-0.11783413
78	0x3c941017	0.018074078
79	0xbdadd990	-0.084887624
80	0xbdc46273	-0.0958909
81	0xbdca2825	-0.09870938
82	0xbdd06fb6	-0.10177557
83	0x3d653204	0.0559559
84	0x3d189ae4	0.03725709
85	0xbd6ea249	-0.058260236
86	0x3a2b9f86	0.0006546903
87	0xbd50be25	-0.050962586
88	0xbbe17026	-0.006879824
89	0xbe1bd71a	-0.15218773
90	0x3d48a255	0.048982937
91	0x3ca78185	0.020447502
92	0x3e1c41dd	0.152595
93	0x3d72dfd6	0.059295498
94	0xbd9fe4fb	-0.078073464
95	0xbdbe1907	-0.09282117
96	0xbb872e75	-0.004125411
97	0x3d30b926	0.04314532
98	0xbd9353c2	-0.0719371
99	0x3d1b3581	0.037892822
100	0x3bd46692	0.006481954
101	0xbd9ea0a8	-0.077454865
102	0xbd2fb726	-0.042899273
103	0x3dccd42a	0.100014046
104	0xbe007cf2	-0.12547663
105	0x3ad37576	0.0016133029
106	0xbddd65ab	-0.10810407
107	0xbdb20fa4	-0.086943895
108	0x3d8beb55	0.068319954
109	0x3d1325c6	0.035924695
110	0xbd184f03	-0.037184726
111	0x3d6614e9	0.056172285
112	0xbd97f936	-0.0742058
113	0x3c296ea1	0.010341317
114	0x3d08bab1	0.033381168
115	0xbca86301	-0.020555021
116	0xbd599e47	-0.05312946
117	0xbd08de53	-0.03341515
118	0xbd19b75d	-0.037528384
119	0x3d865506	0.06559186
120	0x3d135d40	0.035977602
121	0x3ced538f	0.028970508
122	0x3d89a650	0.06721175
123	0x3de71b9c	0.11284563
124	0x3e0daeda	0.13836232
125	0x3d3a2ff0	0.045455873
126	0x3c6622a8	0.014046349
127	0x3deed838	0.11662334
128	0xbe0405fb	-0.12892906
129	0xbd726f76	-0.05918833
130	0xbda524f1	-0.08063687
131	0xbc21dd2e	-0.0098793935
132	0xbcc65d11	-0.0242143
133	0x3a336d28	0.00068445737
134	0x3d4496c3	0.04799534
135	0x3c37c9d0	0.011217549
136	0x3dba224d	0.090885736
137	0xbcc6cd14	-0.02426771
138	0x3ded0069	0.11572344
139	0x3a007a15	0.0004901004
140	0xbcd1c023	-0.025604313
141	0x3d2efeee	0.04272359
142	0x3bf02927	0.0073291245
143	0x3e2faf15	0.17156632
144	0x3e0599b3	0.13046913
145	0x3cf73195	0.03017501
146	0xbca34a90	-0.019933015
147	0xbc923aad	-0.017850244
148	0x3e2f13a2	0.17097333
149	0x3d6f25cd	0.05838566
150	0x3ca25a97	0.019818587
151	0xbe0a6326	-0.13514385
152	0xbdccfbdb	-0.10008975
153	0x3cab5958	0.020916626
154	0xbdbf4818	-0.09339923
155	0x3d2e499e	0.042550676
156	0x3d87c36f	0.06629073
157	0x3da8bdcb	0.08239325
158	0x3d3959d8	0.045251697
159	0xbd39db25	-0.045375008
160	0x3dcd64f8	0.10029024
161	0x3dd90294	0.10596195
162	0xbcfb1986	-0.030651819
163	0x3d361c79	0.044460747
164	0x3c84bbd6	0.016202848
165	0xbc3ccfac	-0.011524122
166	0x3df1b677	0.118023805
167	0xbd24f957	-0.04027685
168	0xbd0399f3	-0.03212924
169	0xbde716cf	-0.11283647
170	0x3dc85bb7	0.09783118
171	0xba1f9630	-0.00060877483
172	0x3b56f0b9	0.003279729
173	0xbdf298c6	-0.118455455
174	0xbddd58b9	-0.10807938
175	0xbda7258d	-0.08161459
176	0x3e281dd3	0.16417627
177	0xbe3d7ca0	-0.18504572
178	0xbd201f31	-0.039092246
179	0x3c5f15de	0.013616053
180	0x3e09a05b	0.13440077
181	0x3d8b2719	0.06794567
182	0xbc49ad76	-0.012309423
183	0x3d9192c4	0.071080714
184	0x3ddaf42b	0.106911026
185	0xbd777b77	-0.06042048
186	0xbc5f8633	-0.013642835
187	0xbd7abedf	-0.061217185
188	0x3dca37e1	0.09873939
189	0xbdc9c6fd	-0.09852407
190	0xbc4b076c	-0.012391906
191	0x3cd8a5bf	0.026446221
192	0x3df174fa	0.1178989
193	0x3ce3dd44	0.027815469
194	0x3c8b4da4	0.017004795
195	0xbd8db4be	-0.069192395
196	0x3d101ee2	0.035185702
197	0x3d8a2ed0	0.0674721
198	0xb8d98ad4	-0.00010373225
199	0xbd2dad80	-0.04240179
200	0xbd0be429	-0.034153137
201	0x3cd0b5bd	0.025477285
202	0x3ba1cb9a	0.0049376013
203	0xbcef8111	-0.029236348
204	0xbdcd63c3	-0.10028794
205	0xbdb5089a	-0.08839531
206	0xbd42da32	-0.04757137
207	0xb9f4d536	-0.0004669816
208	0xbd630703	-0.05542661
209	0xbb2d22e4	-0.0026418502
210	0x3e029742	0.12753013
211	0xbdc687ad	-0.09693847
212	0xbcf60527	-0.030031754
213	0x3e0a4e59	0.1350645
214	0x3db48cce	0.08815919
215	0xbe2a30e5	-0.16620214
216	0xbd1f93cf	-0.03895932
217	0xbccd2485	-0.025041828
218	0xbe01cee0	-0.12676573
219	0xbd32e734	-0.043677524
220	0xbb24bf23	-0.002513834
221	0x3d07ecb2	0.033184715
222	0x3dbb5b91	0.09148324
223	0x3db184b6	0.08667891
224	0x3cd86884	0.026417024
225	0xbcb0e74b	-0.021594664
226	0x3a24de05	0.0006289187
227	0x3d8b6c7d	0.06807802
228	0x3d1fcbef	0.039012846
229	0xbc108003	-0.008819583
230	0xbd79ad1f	-0.060956117
231	0xbd67f2f4	-0.056628183
232	0xbd5b39ab	-0.053521793
233	0x3c7deb58	0.015498005
234	0xbd935bb1	-0.07195223
235	0xbd8ad15f	-0.067782156
236	0xbd54f6ea	-0.051993288
237	0x3cb82dab	0.022482714
238	0x3d2a9bf0	0.04165262
239	0x3c6562a0	0.014000565
240	0x3d49db9b	0.049281698
241	0xbe40636c	-0.18787926
242	0xbd92a18b	-0.07159718
243	0x3d1de0a2	0.038544305
244	0x3d6ea242	0.05826021
245	0xbdbb9fa7	-0.09161311
246	0xbcaf33ce	-0.021387007
247	0x3d8aa129	0.0676902
248	0x3db886ca	0.09010084
249	0x3bb8d48d	0.0056405724
250	0x3ccbf9c5	0.024899373
251	0xbb8ea27e	-0.0043528667
252	0x3dc6c1f3	0.09704962
253	0x3dac23dc	0.08405277
254	0xbbac914d	-0.0052663446
255	0xbe47d567	-0.19515

weight f4 [256, 256]
0	0x3d2d5010	0.04231268
1	0xb9b9346d	-0.0003532501
2	0x3d50d2e4	0.05098237
3	0x3cf40403	0.02978707
4	0xbd497531	-0.049184028
5	0xbd0395f4	-0.03212543
6	0x3c9500bb	0.018188825
7	0x3cd67fc1	0.026183965
8	0x3bcc01e0	0.0062258095
9	0xbd24545d	-0.040119518
10	0x3d2a8ad9	0.04163632
11	0x3cb72260	0.022355258
12	0x3c8ac05a	0.016937423
13	0x3d81925b	0.06326743
14	0x3ce6eed6	0.028190058
15	0x3d6d8c90	0.05799538
16	0xbd0d871c	-0.03455268
17	0x3d1d4343	0.038394224
18	0x3d6d6f87	0.05796769
19	0xbd2ec5c8	-0.042669088
20	0x3d462ae1	0.048380736
21	0xbc91232a	-0.017716963
22	0xbcaeb20d	-0.021325136
23	0x3c9da9f8	0.019246086
24	0xbbb8328c	-0.00562126
25	0x3cfd94f9	0.030954825
26	0xbcee5d16	-0.029097121
27	0x3b45086d	0.0030064837
28	0xbc6061fb	-0.013695235
29	0xbdc955c9	-0.09830815
30	0xbd0d992d	-0.034569908
31	0xbd0c8ff7	-0.034316983
32	0x3c2cdae5	0.010550235
33	0xbd17b9be	-0.037042372
34	0x3d3627e4	0.044471636
35	0x3c19eb07	0.009394414
36	0x3c9267d1	0.01787177
37	0xbb4a47a3	-0.0030865453
38	0xbd03105e	-0.03199803
39	0x3c7386a0	0.01486364
40	0xbcb7e927	-0.022450043
41	0x3c44e5c6	0.012017673
42	0x3c8f5f2f	0.017501442
43	0xbd5d8a74	-0.054087117
44	0x3bdb6811	0.0066957553
45	0x3d103b0b	0.035212558
46	0xbce95925	-0.02848489
47	0x3d9f6b65	0.07784156
48	0x3c5a32b5	0.013317754
49	0x3c981833	0.018566227
50	0x3b19891c	0.002342767
51	0xbd2b517c	-0.041825756
52	0xbd6d8710	-0.057990134
53	0xbc9ae6f8	-0.018908963
54	0xbcc9f478	-0.024652705
55	0xbbd5e3a8	-0.006527383
56	0x3d087edc	0.033324108
57	0x3bdfafe3	0.0068263873
58	0x3c90469e	0.017611798
59	0x3cbf658f	0.023363857
60	0x3d18d9ef	0.037317213
61	0xbd1a458c	-0.03766398
62	0x3d87dfc1	0.066344745
63	0xbce9b5e9	-0.028529124
64	0xbcd7fa91	-0.026364597
65	0xbd009f0f	-0.03140169
66	0xbc768e5e	-0.015048591
67	0xbd959b5d	-0.07305024
68	0x3cd32b66	0.02577753
69	0xbcf978d5	-0.030453125
70	0x3daa47a6	0.08314447
71	0xbcfc3a7b	-0.030789604
72	0xbd12bcf5	-0.035824735
73	0x3c4f41c1	0.012649954
74	0xbc8ad641	-0.016947867
75	0x3d229281	0.0396905
76	0xbce5753b	-0.028010001
77	0x3c3b4806	0.011430746
78	0x3c589d09	0.013221034
79	0x3d8c6ce1	0.068567045
80	0x3ce62f29	0.02809866
81	0xbcc1163d	-0.023570174
82	0xbcd9c226	-0.026581835
83	0xbc5d7b39	-0.013518148
84	0xbcd8b4ce	-0.026453402
85	0xbc2183d8	-0.009858094
86	0xbcede8f2	-0.029041741
87	0xbce53df4	-0.027983643
88	0x3cfbb402	0.030725483
89	0xbbfda827	-0.0077409926
90	0x3cb089c9	0.021550076
91	0xbd6c3c34	-0.0576746
92	0xbd01d573	-0.0316977
93	0x3d8ca9ed	0.06868348
94	0xbd163043	-0.03666712
95	0x3bd9fb90	0.006652303
96	0xbcd6cc22	-0.026220385
97	0x3cb2a81b	0.021808675
98	0x3d70ac73	0.05875821
99	0x3d088c21	0.033336762
100	0x3d112742	0.03543783
101	0xbbc0256f	-0.0058638374
102	0x3d039f50	0.032134354
103	0xbb6fc1c0	-0.003658399
104	0xbc3affc9	-0.011413523
105	0xbda2aa2f	-0.07942616
106	0xbb93711e	-0.0044995686
107	0xbd33f24a	-0.043932237
108	0xbc2c8d94	-0.010531802
109	0xbc883b15	-0.016629735
110	0x3cb8e791	0.022571357
111	0x3c88b2d6	0.016686838
112	0x3c9001ff	0.017579077
113	0x3d59882b	0.053108376
114	0x3d8988aa	0.0671552
115	0x3d132375	0.035922486
116	0x3d0d0fc4	0.034438863
117	0x3c8393ea	0.016061742
118	0x3d4b2c1a	0.049602605
119	0x3b9b0513	0.0047308295
120	0x3c20f9c7	0.009825177
121	0x3cdb4b4d	0.026769305
122	0x3d90c3bc	0.07068583
123	0x3cb9a087	0.022659553
124	0x3be972a8	0.007124264
125	0xbd25d984	-0.040490642
126	0xbc5e902f	-0.013584181
127	0x3b8927dc	0.00418566
128	0x3d4506d4	0.048102215
129	0xbc13bb97	-0.009016893
130	0x3bf5e994	0.0075046513
131	0xbd018b58	-0.03162703
132	0x3bba78d9	0.0056906757
133	0xbcbf592b	-0.023357948
134	0xbb071db4	-0.002061707
135	0x3cfa029e	0.030518826
136	0xbd2d4614	-0.04230316
137	0x3d1a5f05	0.037688274
138	0xbd7817d9	-0.060569618
139	0x3cb93775	0.022609452
140	0x39fb2f2c	0.00047909596
141	0x3db50eb0	0.08840692
142	0xbd281394	-0.041034296
143	0x3d1ef5fb	0.038808804
144	0xbc3d6c0e	-0.011561407
145	0x3cc650b8	0.024208412
146	0xbd8b1e5d	-0.06792901
147	0x3cf559a1	0.029949965
148	0x3dc59009	0.09646613
149	0xbd233925	-0.03984942
150	0x3be95dcb	0.0071217767
151	0xbc9794a0	-0.018503487
152	0x3d4bf81d	0.049797166
153	0xbca399e1	-0.019970836
154	0xbd47eb80	-0.048808575
155	0x3d8cbc9b	0.06871911
156	0x3d15f056	0.036606155
157	0xbd92488e	-0.07142745
158	0xbd125a21	-0.035730485
159	0xbc748754	-0.014924843
160	0xbd9bbf63	-0.076048635
161	0x3cd2a4e6	0.025713395
162	0xbc063361	-0.008190961
163	0x3beb4b05	0.007180574
164	0xbc59178b	-0.013250242
165	0x3bb52972	0.0055286223
166	0xbbabc26f	-0.005241684
167	0x3c9ce257	0.019150896
168	0x3c863f0e	0.016387489
169	0x3db3e19a	0.087832645
170	0x3b698685	0.0035633158
171	0xbd1e129d	-0.03859197
172	0xbd21d5bb	-0.03951047
173	0x3cd4c227	0.025971485
174	0x3cacd9d6	0.021099966
175	0x3d253daa	0.04034201
176	0x3d26a7bf	0.04068732
177	0xbda3d57d	-0.07999704
178	0xbd0ad5d7	-0.03389534
179	0x3d66e18e	0.05636745
180	0xbd220dd4	-0.03956397
181	0x3cff7ba5	0.031186888
182	0xbd7bb39b	-0.061450582
183	0xbd4d3000	-0.050094604
184	0xbc4733c8	-0.012158342
185	0x3d9b2e79	0.07577223
186	0xbd5a6585	-0.053319473
187	0xbe02f047	-0.12786971
188	0xbd9b3e0b	-0.07580193
189	0x3d518102	0.051148422
190	0x3d8e1d9d	0.06939242
191	0x3d913e37	0.07091945
192	0xbd12447d	-0.035709847
193	0xbc082855	-0.008310397
194	0xbc71cd04	-0.014758352
195	0xbca4d712	-0.020122085
196	0xbd75329f	-0.05986273
197	0xbce01562	-0.027353946
198	0x3d89de18	0.06731814
199	0x3c91e8e9	0.017811256
200	0x3dbf60af	0.09344613
201	0xbca62348	-0.020280495
202	0x3d75309e	0.059860818
203	0xbdbc96c2	-0.09208442
204	0x3d91d227	0.071201615
205	0x3be6438b	0.0070270947
206	0xbcdaa696	-0.026690762
207	0xbc16598d	-0.009176624
208	0xbc8f641a	-0.017503787
209	0x3e09d25f	0.13459156
210	0xbdae6883	-0.08516028
211	0xbdb4ebfb	-0.08834072
212	0x3c960fdc	0.01831811
213	0x3ccff3c7	0.025384797
214	0xbd323a4c	-0.043512627
215	0x3ce51fb2	0.027969215
216	0x3d54ece5	0.051983733
217	0xbc829c33	-0.015943622
218	0xbda94e62	-0.082669035
219	0xbcd38245	-0.025818953
220	0xbc87b147	-0.016564025
221	0x3cd19bc8	0.025586978
222	0x3cc8c3c4	0.02450741
223	0x3d006ac5	0.031351823
224	0xbcc15c8c	-0.0236037
225	0xbbb49a5a	-0.005511564
226	0x3d1dc7d9	0.038520668
227	0xbcabacc0	-0.020956397
228	0xbd2fc49e	-0.042912118
229	0x3dd4c336	0.10388796
230	0xbceb5dfe	-0.028731342
231	0xbae8c595	-0.0017759079
232	0x3d277452	0.040882416
233	0xbd422c53	-0.047405552
234	0x3bde9ac5	0.0067933523
235	0xbc1837b6	-0.009290626
236	0x3d5745a6	0.052556656
237	0x3d01727b	0.031603318
238	0x3ccaf80d	0.024776483
239	0xbbb0f01f	-0.0053997184
240	0xbceb3052	-0.028709564
241	0xbc9e6a35	-0.019337753
242	0x3cadda7e	0.02122235
243	0x3c736fe9	0.014858224
244	0xbd47e5c5	-0.04880311
245	0x3c912766	0.017718982
246	0xbd951112	-0.072786465
247	0x3ced7154	0.028984703
248	0xbcad6422	-0.021165911
249	0x3ca40cff	0.020025728
250	0x3ce99cc3	0.028517133
251	0x3c9e4a83	0.01932264
252	0xbced7227	-0.028985096
253	0x3c15b6d6	0.00913783
254	0x3ba929b9	0.0051624444
255	0xbcee463f	-0.02908623

bias f4 [256]
0	0xbd3e8756	-0.046515785
1	0xbdc3d46d	-0.095620014
2	0x3cd64d53	0.026159918
3	0x3b421b0c	0.0029618172
4	0x3d717694	0.058950976
5	0xbdccf080	-0.10006809
6	0xbe679d06	-0.22618493
7	0xbb929811	-0.004473694
8	0x3dacfabe	0.08446263
9	0xbdbdefad	-0.0927423
10	0xbd0b2116	-0.0339671
11	0x3d94c9bf	0.072650425
12	0x3b306b0c	0.0026919274
13	0xbda8f126	-0.082491204
14	0xbd332165	-0.04373302
15	0xbda71875	-0.08158962
16	0xbd81b532	-0.063333884
17	0xbc447aae	-0.01199214
18	0x3d324544	0.043523088
19	0x3d5659cf	0.052331742
20	0x3d22a0d3	0.039704155
21	0xbd96ef09	-0.07369811
22	0xbe03fac1	-0.12888624
23	0xbd6ba98c	-0.05753474
24	0x3d6b336d	0.05742209
25	0xbd35a798	-0.044349283
26	0x3da40005	0.08007816
27	0xbe329240	-0.17438602
28	0x3da7c60c	0.08192071
29	0xbd03684a	-0.03208188
30	0xbd172986	-0.036904834
31	0x3c9074d9	0.017633842
32	0xbdae578d	-0.08512793
33	0x3e168139	0.14697732
34	0xbd8d4884	-0.06898597
35	0xbd97a87a	-0.07405181
36	0x3d027cbc	0.031857237
37	0xbd840bfb	-0.064475976
38	0x3de9c39e	0.11414264
39	0xbd9cefdf	-0.07662939
40	0xbcf8d680	-0.03037572
41	0xbe0b2283	-0.13587384
42	0x3c032367	0.008004046
43	0x3d9d552c	0.07682261
44	0x3da8bd0a	0.08239181
45	0xbded2d72	-0.11580934
46	0xbd555831	-0.05208606
47	0xbda29bb9	-0.07939858
48	0x3d5d2d18	0.053998083
49	0x3d946b43	0.07247021
50	0x3b7fc7f0	0.0039029084
51	0x3d9cb6e3	0.076520704
52	0x3d03ac67	0.032146838
53	0x3dbf7e32	0.09350242
54	0xbd0a1eb0	-0.033720672
55	0x3da73699	0.081647106
56	0x3d779e1b	0.060453515
57	0x3a4def63	0.0007855801
58	0xbd5fbc5b	-0.05462299
59	0xbdb4ab66	-0.08821754
60	0xbddc05cf	-0.107432954
61	0xbb8a4a68	-0.0042202957
62	0xbb8a39d3	-0.004218319
63	0x3d8e2113	0.06939902
64	0x3d54814c	0.05188112
65	0x3d10f97b	0.035394173
66	0xbd84a092	-0.06475939
67	0xbd33ed64	-0.043927565
68	0xbe0980bb	-0.13428013
69	0x3dbb9494	0.091591984
70	0xbdaf6af3	-0.08565321
71	0xbdf31d16	-0.11870782
72	0x3d6ebc97	0.058285322
73	0x3d7e9653	0.06215508
74	0xbc4a4411	-0.01234533
75	0xbd2fe113	-0.042939257
76	0xbd69563c	-0.056967005
77	0x3a4a9776	0.0007728258
78	0xbcef3233	-0.029198742
79	0xbb8b5bba	-0.004252878
80	0xbe056688	-0.13027394
81	0xbd993ac5	-0.074819125
82	0x3da3d466	0.07999496
83	0x3c79c73f	0.015245258
84	0x3de5e4ba	0.11225267
85	0xbdc7e8a6	-0.09761171
86	0xbd91c1f9	-0.071170755
87	0x3d63649b	0.055515867
88	0xbd23720e	-0.039903693
89	0x3dc4ccb4	0.096093565
90	0x3bbf989f	0.0058470513
91	0x3f251428	0.6448388
92	0x3d15e9a6	0.036599778
93	0xbd7606c4	-0.060065046
94	0x3d755f8a	0.059905566
95	0xbe0664f5	-0.1312445
96	0x3ce351a8	0.027748898
97	0xbcea74fb	-0.028620234
98	0x3d67f7d5	0.056632835
99	0x3c41f27a	0.011837596
100	0x3e3271a0	0.17426157
101	0x3e29c376	0.16578469
102	0x3e187482	0.14888194
103	0xbb9e2ede	-0.0048273643
104	0xbbf0d6d8	-0.00734983
105	0x3d539271	0.05165333
106	0xbccd3349	-0.025048869
107	0xbdb70550	-0.0893656
108	0x3cc7cc68	0.02438946
109	0x3c863a52	0.016385231
110	0x3d5a7d6a	0.05334226
111	0xbd9d21d9	-0.076724716
112	0xbd57deaf	-0.052702602
113	0x3d772dc6	0.060346387
114	0x3d6d1a75	0.05788656
115	0x3d20cd02	0.03925801
116	0x3cf4c959	0.029881166
117	0x3e039adc	0.12852043
118	0x3dc7ec72	0.09761895
119	0x3cd5125c	0.026009731
120	0x3e15b503	0.14619832
121	0xbcdee3b2	-0.027208183
122	0xbb6d22ee	-0.003618415
123	0x3d8a3d28	0.06749946
124	0xbd1dc05b	-0.038513523
125	0xbd637a21	-0.055536393
126	0x3dc2aafa	0.095052674
127	0xbb98e547	-0.004666004
128	0xbd471dfb	-0.048612576
129	0x3cabc6c6	0.020968806
130	0xbaf16b1c	-0.0018418762
131	0xbe0e5f38	-0.1390351
132	0x3c048963	0.008089396
133	0xbd62595f	-0.055261012
134	0xbd7679c1	-0.060174707
135	0xbd4b0bce	-0.049571805
136	0x3dd0474b	0.10169848
137	0x3e06813f	0.13135241
138	0xbe1e282b	-0.1544501
139	0x3d5c6b75	0.053813417
140	0x3c2921ca	0.010322997
141	0xbc740a8e	-0.014895095
142	0x3cac3683	0.021022087
143	0x3dc82c1e	0.0977404
144	0x3d986526	0.074411675
145	0xbe162d02	-0.14665607
146	0x3bb30775	0.0054635354
147	0x3c6b8ed3	0.014377314
148	0x3e02a3a7	0.12757741
149	0x3d77b3e2	0.060474284
150	0x3cdf957e	0.027292963
151	0xbcbf9dcc	-0.023390673
152	0x3cdce539	0.02696477
153	0xbc9ac54d	-0.018892908
154	0x3bdd5b42	0.0067552635
155	0xbd2f3e29	-0.04278389
156	0x3e4cc8f5	0.19998534
157	0x3d31cc0c	0.043407485
158	0xbda80254	-0.08203569
159	0x3d262c4d	0.040569592
160	0x3de7046a	0.11280139
161	0xbe1089f1	-0.1411512
162	0xbdf755d7	-0.120769195
163	0xbd957743	-0.07298138
164	0xbd3a11fe	-0.045427315
165	0xbe01290d	-0.12613316
166	0xbd537eb4	-0.051634505
167	0xbcbaacae	-0.022787418
168	0x3dfa67fe	0.12226866
169	0xbdf520a4	-0.11969116
170	0xbe002b7a	-0.12516585
171	0xbd204837	-0.03913137
172	0xbdbe5067	-0.09292679
173	0x3dca3686	0.09873681
174	0xbd313a47	-0.04326847
175	0xbda37369	-0.07980997
176	0xbd297ac5	-0.041376848
177	0xbdb74912	-0.08949484
178	0x3d42519d	0.047441114
179	0x3c46088c	0.012086999
180	0x3d43165a	0.047628738
181	0x3d6f5734	0.058432773
182	0xbd1aa173	-0.037751626
183	0x3d187a93	0.03722627
184	0x3e18bfc6	0.14916906
185	0xbe023144	-0.12714106
186	0x3e05a026	0.13049373
187	0xbdf94080	-0.121705055
188	0xbd4498ef	-0.04799741
189	0x3d29398c	0.041314647
190	0xbd4716ce	-0.048605733
191	0x3daccda5	0.08437661
192	0xbc6e2f8f	-0.014537706
193	0xbd8b311b	-0.067964755
194	0x3d5c1404	0.053730026
195	0x3d08f0a4	0.033432618
196	0x3d909be4	0.07060984
197	0xbdcf1778	-0.10111898
198	0x3d5e4f92	0.054275103
199	0xbcf724f8	-0.030168995
200	0x3f1654da	0.58723223
201	0x3d4664ce	0.04843598
202	0x3cdccfc5	0.026954541
203	0xbdf68ac1	-0.12038184
204	0x3dd29d95	0.10283963
205	0xbcf0016f	-0.029297559
206	0x3ddb953c	0.107218236
207	0xbd9a0f73	-0.07522478
208	0xbcf9b547	-0.030481948
209	0xbd0e1755	-0.03469022
210	0xbda47607	-0.080303244
211	0x3b3c7916	0.0028758696
212	0xbd4837e7	-0.048881438
213	0x3cc82508	0.02443172
214	0xbbca13e7	-0.0061669233
215	0x3d12ac1d	0.03580867
216	0xbc54d1a7	-0.012989438
217	0x3da6b367	0.08139687
218	0x3dfdb209	0.12387473
219	0x3cccee51	0.025015982
220	0x3cd5a756	0.026080769
221	0xbe2a1873	-0.16610889
222	0x3cf6b3bb	0.030114999
223	0xbc81cf55	-0.015845934
224	0x3cfe296e	0.031025615
225	0x3d6d0e2a	0.057874836
226	0x3d2687a3	0.040656697
227	0x3d8a5f98	0.06756514
228	0xbc9f297a	-0.019428957
229	0xbcb14dd0	-0.02164355
230	0xbd823641	-0.06358004
231	0xbddd61c3	-0.10809662
232	0x3ded49e7	0.115863614
233	0x3d5db3cf	0.054126557
234	0xbc9dce88	-0.01926352
235	0x3d9f99fc	0.07793042
236	0x3de81380	0.11331844
237	0xbccbbf93	-0.024871623
238	0xbc478dc5	-0.012179797
239	0x3dc6d768	0.09709054
240	0x3d23964c	0.039938256
241	0x3da7f7be	0.0820155
242	0xbd16e82a	-0.036842503
243	0xbd9a475c	-0.07533142
244	0xbd1755c9	-0.036947045
245	0x3dd0ef35	0.10201875
246	0x3c8f05aa	0.017458756
247	0xbdce4dea	-0.10073455
248	0xbbbe0ff6	-0.0058002425
249	0x3dd6893e	0.104753956
250	0xbd0a3d8f	-0.033750113
251	0x3d8b36b1	0.06797541
252	0xbd5a0c02	-0.053234108
253	0xbc9049c1	-0.017613294
254	0xbd156773	-0.03647561
255	0xbc2fb36a	-0.010723928
